MachineLearningDev/results/MoveToGoal2/MoveToGoal.onnx (onnx, 75098 bytes, 7 tensors)

network_body._body_endoder.seq_layers.0.weight f4 [128, 6]
-0.009596861 0.63687 -0.705187 -0.05245024 -0.064825706 0.031069018 0.6206851 -0.14113298
0.016397273 0.32871372 -0.28031608 0.4450027 0.1956169 -0.38117445 0.77485955 0.26024288
0.20204626 -0.16662952 0.7266136 -0.39778078 -0.0901716 0.9139547 0.006332879 0.66870517
0.18144204 -0.17239094 0.7227388 0.17000486 -0.08517973 -0.6541486 0.19113341 -0.2425634
0.26520953 0.6019664 -0.36254627 -0.19376358 0.033131965 0.13892704 0.040018093 -0.5970381
0.051668327 -0.21655269 -0.28644976 -0.36105832 -0.82979757 -0.2406713 0.3697368 -0.035461437
0.04280785 0.015407076 0.55955935 0.39641732 0.08889056 -0.41102424 -0.05724217 0.6905866
-0.08158531 -0.19343892 -0.55061144 -0.7777976 -0.22125249 -0.3465387 -0.24993138 -0.42039585
0.07019346 0.29364714 -0.43775678 0.6289563 0.2758835 -0.25245902 -0.43596372 -0.03133239
0.44494578 0.32619074 -0.71767586 -0.01926341 -0.04149281 0.5952819 0.6922842 -0.78811496
0.22537655 -0.32090825 -0.5320007 -0.5335673 0.3256507 -0.0025185833 -0.41312438 -0.11857597
-0.36016694 0.38144422 0.015315461 -0.02756458 0.4336194 -0.04651133 -0.7385618 -0.19038863
0.3195131 -0.47532982 -0.26523483 -0.06788605 -0.17170386 0.53132844 -0.7844374 0.23793899
-0.3742775 -0.62788284 -0.41087827 -0.25278106 0.18831012 -0.2706514 0.31004682 -0.06132229
-0.8119664 0.39634132 -0.039335452 -0.51615655 -0.4559105 0.27101073 0.28212532 0.022919476
0.13738057 0.21425101 0.5190526 0.16172221 0.43291652 -0.46666762 -0.23965849 -0.546254
0.5906676 0.34430328 0.090790465 -0.19830304 0.075616375 -0.28895172 -0.8503831 0.015211221
0.003764925 0.3216346 0.46490964 0.21135692 -0.6705978 0.50410354 0.34122714 -0.13780458
-0.39764506 0.14430773 0.29078132 0.13026896 0.020130098 0.044954635 0.5778342 -0.49128112
0.07353036 -0.35024285 -0.82860255 -0.2930045 -0.19095172 0.23836344 0.57976407 -0.2129451
0.10694739 -0.00703517 0.20625824 0.27126423 0.45236748 -0.15916021 0.30398166 -0.52725035
0.083308294 0.47435376 -0.09710404 -0.58163786 -0.19365032 0.26955023 -0.28871873 0.5228973
-0.33176926 -0.59472406 0.21266752 0.74595904 0.18390976 -0.18600073 -0.6635292 0.034435686
-0.40885383 0.1456762 -0.24258347 0.4297652 -0.33774272 0.46917057 0.24248827 0.18316402
0.22565816 -0.060276303 0.22344501 -0.5528971 0.1857534 0.16099516 -0.0013189152 -0.21194609
-0.2894217 -0.097489305 -0.037616253 -0.51054066 -0.10878868 0.4833666 0.071528435 0.3338888
0.75122327 -0.12602785 -0.7511378 0.36918858 0.3840872 -0.05444279 0.04845658 -0.5334691
0.76392907 -0.09628778 -0.24293204 -0.17700227 0.31547365 -0.13956153 -0.33838966 0.4702368
0.21994762 -0.3614122 -0.023137404 0.07229866 -0.094281964 -0.5073006 -0.062627845 0.87336296
-0.34957027 -0.1441157 -0.9552982 0.3796427 -0.34999084 -0.58151335 0.70373446 -0.08899362
-0.18067516 0.078826234 0.8421173 -0.09633934 -0.38968375 -0.15582594 -0.057062592 -0.4723048
0.26865697 -0.017584903 0.49758717 -1.0012072 0.5984762 0.22388881 -0.16894482 -0.47926977
00000000: 273c 1dbc ea09 233f 2387 34bf 10d6 56bd
00000010: 57c3 84bd 7484 fe3c 38e5 1e3f 2a85 10be
00000020: 9353 863c 2a4d a83e 9785 8fbe 65d7 e33e
00000030: cc4f 483e 4c29 c3be 325d 463f 8e3e 853e
00000040: 37e5 4e3e eea0 2abe 5903 3a3f eca9 cbbe
00000050: e3ab b8bd eff8 693f 0a84 cf3b 4330 2b3f
00000060: f1cb 393e 4087 30be 6905 393f c115 2e3e
00000070: b672 aebd 4876 27bf 7ab8 433e 8a62 78be
00000080: 8bc9 873e 781a 1a3f aa9f b9be f669 46be
00000090: 62b5 073d e442 0e3e 03ea 233d 7dd7 18bf
000000a0: 2ba2 533d fdbf 5dbe 8ba9 92be a3dc b8be
000000b0: 9d6d 54bf 8a72 76be 244e bd3e 0340 11bd
000000c0: 4957 2f3d f66d 7c3c 483f 0f3f 36f7 ca3e
000000d0: 410c b63d c571 d2be c476 6abd 49ca 303f
000000e0: 3316 a7bd da14 46be dff4 0cbf be1d 47bf
000000f0: 0390 62be 856d b1be 03ee 7fbe 203e d7be
00000100: 97c1 8f3d eb58 963e a821 e0be 4803 213f
00000110: 9a40 8d3e 4f42 81be a336 dfbe 6456 00bd
00000120: efcf e33e 7902 a73e 9bb9 37bf 4cce 9dbc
00000130: 5df4 29bd 6564 183f 8a39 313f e7c1 49bf
00000140: 1cc9 663e 164e a4be 3331 08bf de97 08bf
00000150: b0bb a63e d10e 25bb 0a85 d3be f5d7 f2bd
00000160: cd67 b8be a84c c33e b3ed 7a3c 1dcf e1bc
00000170: 5d03 de3e aa82 3ebd 6312 3dbf 3df5 42be
00000180: 3997 a33e 6e5e f3be dccc 87be d707 8bbd
00000190: 23d3 2fbe 2405 083f e4d0 48bf 47a6 733e
000001a0: 4da1 bfbe eebc 20bf a35e d2be 856c 81be
000001b0: 5ed4 403e d292 8abe 75be 9e3e 152d 7bbd
000001c0: 08dd 4fbf 40ed ca3e 361e 21bd d622 04bf
000001d0: 1a6d e9be ebc1 8a3e bb72 903e a0c1 bb3c
000001e0: 7ead 0c3e 9e64 5b3e a2e0 043f 829a 253e
000001f0: 3ca7 dd3e 0fef eebe 0969 75be 4dd7 0bbf
00000200: fe35 173f 8548 b03e 5af0 b93d f40f 4bbe
00000210: c2dc 9a3d 7bf1 93be b5b2 59bf 7c38 793c
00000220: f6bc 763b 4aad a43e a308 ee3e f36d 583e
00000230: 4cac 2bbf ee0c 013f 53b5 ae3e a51c 0dbe
00000240: 2298 cbbe 68c5 133e 4ae1 943e 3a65 053e
00000250: e0e7 a43c 5a22 383d f1ec 133f 3389 fbbe
00000260: 1697 963d 0853 b3be 4c1f 54bf b004 96be
00000270: d988 43be 8c15 743e 6b6b 143f 480e 5abe
00000280: 3c07 db3d 4987 e6bb 5c35 533e 25e3 8a3e
00000290: b69c e73e e5fa 22be 7ca3 9b3e e1f9 06bf
000002a0: 8a9d aa3d 7fde f23e 7cde c6bd 38e6 14bf
000002b0: 454c 46be 7d02 8a3e f1d2 93be 99dc 053f
000002c0: a9dd a9be d63f 18bf 84c5 593e 2cf7 3e3f
000002d0: d752 3c3e fa76 3ebe 0ddd 29bf 6f0c 0d3d
000002e0: 4a55 d1be 242c 153e cd67 78be 2f0a dc3e
000002f0: 9dec acbe 2037 f03e d84e 783e 598f 3b3e
00000300: ef12 673e 49e4 76bd c5ce 643e aa8a 0dbf
00000310: 2436 3e3e eadb 243e 73df acba 6508 59be
00000320: 152f 94be 79a8 c7bd 8013 1abd cbb2 02bf
00000330: 99cc debd d47b f73e 807d 923d 79f3 aa3e
00000340: 2b50 403f 720d 01be 914a 40bf 4906 bd3e
00000350: 14a7 c43e 67ff 5ebd 687a 463d 6e91 08bf
00000360: db90 433f 8732 c5bd 2dc3 78be 1540 35be
00000370: c385 a13e 38e9 0ebe 6941 adbe e1c2 f03e
00000380: f339 613e 050b b9be a78a bdbc 5211 943d
00000390: e716 c1bd 74de 01bf 0743 80bd b794 5f3f
000003a0: e0fa b2be 1193 13be 6c8e 74bf 8760 c23e
000003b0: 0032 b3be 0fde 14bf f127 343f 4942 b6bd
000003c0: e902 39be a66f a13d 0095 573f 8f4d c5bd
000003d0: a184 c7be d690 1fbe 77ba 69bd efd1 f1be
000003e0: 688d 893e 370e 90bc bfc3 fe3e 8f27 80bf
000003f0: bc35 193f 1c43 653e dfff 2cbe d962 f5be

network_body._body_endoder.seq_layers.0.bias f4 [128]
-0.027832653 0.005037886 0.00016041513 -0.014378208 -0.0028898893 -0.030056342 -0.034905765 -0.053014025
0.03064752 -0.010373404 -0.0060834866 -0.029634554 -0.032553807 -0.07833866 -0.0029067423 0.026701843
-0.005735925 0.082831286 -0.16372645 -0.011032812 -0.03302839 0.0046386584 0.012735012 -0.09263044
0.019852506 -0.041086204 -0.043130152 0.08261348 -0.10126035 0.021650521 0.0032980484 -0.005714155
-0.06349675 -0.047699187 -0.058792032 -0.004046966 -0.03452937 -0.029204 0.031029107 0.022075156
-0.055422373 0.04213465 0.051649127 -0.0453603 -0.07483109 0.02690184 -0.020500403 0.0011110187
0.029226182 -0.023639953 -0.0034752523 -0.010813705 0.05230984 0.053307492 -0.028165966 -0.041417107
-0.051497128 0.057550803 0.0042365394 0.06358823 0.014269897 0.06227343 -0.021410974 0.0054875948
0.07146226 -0.12128089 -0.011105549 -0.04305779 -0.0187034 -0.03926293 -0.05661056 -0.0460439
-0.120657586 -0.105784275 0.023623511 -0.10877599 0.097689845 -0.15792887 -0.07848538 -0.035787325
-0.018959593 0.055159863 -0.15058807 -0.056080885 0.010589122 -0.02062303 -0.0012401998 -0.026912162
0.02494013 -0.0051654405 -0.024800794 0.07844862 -0.13393484 0.07759771 0.02521109 -0.049533166
-0.046643175 -0.045993168 -0.004381539 0.08466863 0.07454104 -0.04734254 -0.024497211 -0.014581194
0.009316557 -0.065999985 -0.015392248 -0.029708004 0.012983217 -6.8705005e-05 -0.0044072266 -0.0133235715
-0.03736841 0.04510289 0.03772284 -0.062340815 -0.036624316 -0.023273466 -0.07341733 -0.01711296
-0.032410193 -0.006148828 0.06667524 0.008908146 0.024791915 -0.027347293 -0.16890274 0.0007470451
00000000: 4e01 e4bc da14 a53b 1c35 2839 9392 6bbc
00000010: 4c64 3dbb b838 f6bc 59f9 0ebd 3c25 59bd
00000020: 8210 fb3c 36f5 29bc fc57 c7bb 2ac4 f2bc
00000030: 2457 05bd 0570 a0bd 0b7f 3ebb d3bd da3c
00000040: 6df4 bbbb 73a3 a93d e8a7 27be f8c2 34bc
00000050: c748 07bd e3ff 973b 83a6 503c 07b5 bdbd
00000060: b9a1 a23c 024a 28bd 3ea9 30bd 4231 a93d
00000070: 9661 cfbd 6f5c b13c 1224 583b ce3d bbbb
00000080: 960a 82bd 3960 43bd eacf 70bd 699c 84bb
00000090: ab6e 0dbd 3a3d efbc c130 fe3c f5d6 b43c
000000a0: 9202 63bd 6295 2c3d 098e 533d b9cb 39bd
000000b0: 0b41 99bd 3f61 dc3c 76f0 a7bc 9a9f 913a
000000c0: bf6b ef3c 93a8 c1bc 0fc1 63bb f72b 31bc
000000d0: d842 563d f558 5a3d 50bc e6bc fca4 29bd
000000e0: a7ee 52bd 64ba 6b3d abd2 8a3b 8c3a 823d
000000f0: 49cc 693c 6d12 7f3d 1166 afbc 48d1 b33b
00000100: ce5a 923d 1e62 f8bd 0cf4 35bc 5d5d 30bd
00000110: df37 99bc 2bd2 20bd 79e0 67bd 8798 3cbd
00000120: 531b f7bd 6da5 d8bd 1886 c13c f2c5 debd
00000130: 9d11 c83d 1bb8 21be f1bc a0bd bb95 12bd
00000140: 2651 9bbc 4fef 613d c233 1abe 12b5 65bd
00000150: ff7d 2d3c a1f1 a8bc 338e a2ba e576 dcbc
00000160: 3e4f cc3c db42 a9bb 092b cbbc aca9 a03d
00000170: 3726 09be 8ceb 9e3d 7d87 ce3c 4ae3 4abd
00000180: ea0c 3fbd 5563 3cbd 0393 8fbb bf66 ad3d
00000190: f9a8 983d 40ea 41bd 60ae c8bc f6e5 6ebc
000001a0: 79a4 183c 002b 87bd c42f 7cbc 335e f3bc
000001b0: 8fb7 543c b815 90b8 7f6a 90bb 1c4b 5abc
000001c0: 9e0f 19bd cfbd 383d 4483 1a3d 1559 7fbd
000001d0: 6103 16bd ffa7 bebc d35b 96bd 7a30 8cbc
000001e0: 8dc0 04bd 1c7c c9bb 078d 883d 79f3 113c
000001f0: 6a18 cb3c 6e07 e0bc d7f4 2cbe 59d5 433a

network_body._body_endoder.seq_layers.2.weight f4 [128, 128]
0.11836189 0.0006110744 -0.06422625 -0.1637969 -0.0856076 -0.033972673 0.043085825 0.13943043
-0.017213495 -0.07137775 -0.0061799837 -0.03556248 -0.15147206 -0.05248633 -0.02879008 -0.18955715
0.039664764 -0.07741455 0.052738044 -0.034827396 0.17172676 0.020577027 0.103715345 0.03773119
0.08958514 0.05766005 0.14349897 -0.0060637197 0.013719338 0.06746255 -0.008948501 -0.08157505
0.075054556 0.13758238 0.004073518 -0.10982077 -0.11071896 0.06308401 -0.1407464 0.00035357688
-0.05013808 0.003643491 0.21039192 -0.0249463 0.051612582 0.0108900145 -0.05636781 -0.088677995
0.0010692294 -0.09120049 0.146016 -0.056036696 0.030056756 0.11960448 0.05185002 0.19685568
0.0011749689 0.043829802 -0.11201919 0.048715454 -0.02170226 0.05370095 0.1824624 -0.099240944
0.015813913 -0.029478962 0.092803515 -0.108319595 -0.0065962356 0.17686638 -0.06378198 0.116073206
-0.024298497 0.07379822 0.07566914 0.014097017 -0.023105327 0.004077256 0.007968241 0.04027323
-0.081220984 0.14931446 0.041057825 0.20715953 -0.02721191 0.16784042 -0.0007570873 -0.037515517
0.05739168 0.117188215 -0.068774015 0.044904474 0.032432403 0.07036685 0.16051133 0.14761001
-0.07929127 -0.03827979 0.09514458 0.12071939 0.16602758 0.15971036 -0.042816423 0.025510333
0.09182334 0.121657535 -0.043730985 -0.008417005 -0.032631245 0.07051328 0.084303126 0.09206271
0.026051987 0.030512862 0.18438458 0.046745963 -0.09805549 0.10200438 0.090479724 -0.20018527
0.045448963 -0.028745942 0.18061319 -0.12064059 0.08403674 0.07075342 -0.15116598 -0.16302322
-0.09823254 -0.045477726 -0.054352812 -0.028674264 -0.0132340975 -0.024401013 -0.08388214 0.11259154
-0.09169103 0.022923827 0.026037784 -0.077341534 0.08124526 0.18348485 0.06284337 0.059582368
0.07072133 0.11319093 -0.00961198 0.021421425 0.08218121 0.10546379 0.092445835 0.029040195
-0.021304479 0.034795836 -0.024066787 0.33435613 -0.05145717 -0.09346568 -0.099857084 0.011552541
-0.2091378 -0.0057066944 -0.14448802 -0.07952849 0.076547064 -0.15477756 -0.1086313 -0.02477611
-0.103517935 0.008607757 0.10701492 -0.07433568 0.022705974 0.18609037 0.23284891 0.036774106
-0.15640062 0.05638655 0.011617979 0.007453406 -0.044317048 0.14364614 0.025889624 0.008224058
0.03967868 -6.0956572e-05 -0.06017353 -0.043571554 -0.07882956 -0.08303259 0.07469089 0.07861602
-0.09824177 -0.12317608 -0.020739084 -0.0023740449 -0.10819941 -0.07773406 -0.056794643 0.028259689
0.042161427 0.036484394 -0.049680382 -0.05106177 -0.093408704 -0.17776331 -0.16907671 0.054418962
0.0071989847 -0.046507586 -0.06122026 0.03801066 -0.0033469198 0.07216043 0.039571833 0.13046297
-0.17023082 0.030215805 -0.13347882 0.009490083 -0.031588122 -0.15060951 -0.041136105 -0.15206997
0.0330114 -0.04478589 0.03940464 -0.143229 -0.07426175 0.011335199 -0.05099295 -0.052250378
0.11005748 0.1868587 -0.14891428 -0.0029996466 -0.035932735 -0.113275856 0.102105916 0.03812804
0.012480529 -0.01335172 0.12484836 -0.021219399 0.012230544 0.008454321 -0.029119635 0.10119333
-0.08811541 -0.17686777 0.015190845 -0.16532227 -0.07935695 -0.1655274 0.07901528 -0.12467007
00000000: b867 f23d 8230 203a 0d89 83bd 60ba 27be
00000010: 0a53 afbd ee26 0bbd c37a 303d dac6 0e3e
00000020: 5103 8dbc 7f2e 92bd 7681 cabb f7a9 11bd
00000030: 7e1b 1bbe e8fb 56bd 2dd9 ebbc 451b 42be
00000040: 8577 223d 858b 9ebd d903 583d 2ca7 0ebd
00000050: 24d9 2f3e 2791 a83c b668 d43d 058c 1a3d
00000060: 6a78 b73d f22c 6c3d 65f1 123e 2bb2 c6bb
00000070: 13c7 603c ce29 8a3d bc9c 12bc d210 a7bd
00000080: 34b6 993d 65e2 0c3e 257b 853b b6e9 e0bd
00000090: 9fc0 e2bd 3032 813d d31f 10be 4960 b939
000000a0: 965d 4dbd a3c7 6e3b fb70 573e 2f5c ccbc
000000b0: b767 533d 086c 323c efe1 66bd cf9c b5bd
000000c0: 6325 8c3a 53c7 babd 3885 153e bc86 65bd
000000d0: 9639 f63c 32f3 f43d b060 543d 8994 493e
000000e0: 6a01 9a3a e186 333d 516a e5bd db89 473d
000000f0: f0c8 b1bc 87f5 5b3d 6cd7 3a3e d63e cbbd
00000100: 2e8c 813c dd7d f1bc c50f be3d aad6 ddbd
00000110: 3c25 d8bb 761c 353e 20a0 82bd cab7 ed3d
00000120: a40d c7bc 8523 973d 6cf8 9a3d 2df7 663c
00000130: 6247 bdbc 819a 853b 3a8d 023c 8bf5 243d
00000140: 3057 a6bd e4e5 183e 402c 283d a121 543e
00000150: 83eb debc 5cde 2b3e 4577 46ba dfa9 19bd
00000160: 8a13 6b3d 6000 f03d 64d9 8cbd c1ed 373d
00000170: d7d7 043d 7f1c 903d 155d 243e 1427 173e
00000180: 7663 a2bd 45cb 1cbd 29db c23d ba3b f73d
00000190: 2203 2a3e 1d8b 233e 4660 2fbd 0cfb d03c
000001a0: e00d bc3d 9627 f93d 431f 33bd 7ae7 09bc
000001b0: 57a8 05bd 4469 903d 1ea7 ac3d 608b bc3d
000001c0: fa6a d53c 1cf6 f93c 50cf 3c3e b278 3f3d
000001d0: 51d1 c8bd ace7 d03d 6f4d b93d 5efd 4cbe
000001e0: b128 3a3d 9c7c ebbc aaf2 383e 6a12 f7bd
000001f0: 741b ac3d 2be7 903d 41cb 1abe 8fef 26be
00000200: 242e c9bd da46 3abd 0ea1 5ebd 4ae6 eabc
00000210: d4d3 58bc a2e4 c7bc 66ca abbd 6596 e63d
00000220: 82c8 bbbd c0ca bb3c 314d d53c 3d65 9ebd
00000230: ea63 a63d 74e3 3b3e 06b4 803d a40c 743d
00000240: 58d6 903d a5d0 e73d 917b 1dbc fc7b af3c
00000250: 9f4e a83d 66fd d73d 3e54 bd3d b4e5 ed3c
00000260: bb86 aebc 1486 0e3d b627 c5bc ba30 ab3e
00000270: c1c4 52bd ef6a bfbd df81 ccbd de46 3d3c
00000280: 3828 56be 39ff babb abf4 13be d5df a2bd
00000290: b5c4 9c3d 027e 1ebe 167a debd 45f7 cabc
000002a0: 3601 d4bd 8d07 0d3c a32a db3d 4e3d 98bd
000002b0: e101 ba3c 798e 3e3e f26f 6e3e 72a0 163d
000002c0: 7c27 20be 95f5 663d 5659 3e3c b43b f43b
000002d0: cb85 35bd f917 133e 7a16 d43c 33be 063c
000002e0: 1d86 223d 9fab 7fb8 8578 76bd 1678 32bd
000002f0: 6471 a1bd fe0c aabd 8af7 983d 7001 a13d
00000300: fb32 c9bd be43 fcbd 03e5 a9bc dd95 1bbb
00000310: a797 ddbd 0933 9fbd 80a1 68bd dd80 e73c
00000320: 76b1 2c3d a970 153d a87d 4bbd 2626 51bd
00000330: 104d bfbd 9607 36be 7222 2dbe 6be6 5e3d
00000340: 76e5 eb3b bd7e 3ebd 18c2 7abd 11b1 1b3d
00000350: ff57 5bbb d9c8 933d 1316 223d 1698 053e
00000360: fd50 2ebe 2387 f73c acae 08be 4b7c 1b3c
00000370: 8c62 01bd 6139 1abe 557e 28bd 3bb8 1bbe
00000380: f636 073d 6971 37bd c366 213d 9faa 12be
00000390: 8b16 98bd 45b7 393c fcdd 50bd 7e04 56bd
000003a0: d165 e13d e357 3f3e fc7c 18be b895 44bb
000003b0: 342e 13bd 2cfd e7bd e81c d13d 262c 1c3d
000003c0: 227b 4c3c 2cc1 5abc 7fb0 ff3d 4ed4 adbc
000003d0: 9f62 483c fe83 0a3c 4d8c eebc 733e cf3d
000003e0: da75 b4bd d31c 35be 06e3 783c 3e4a 29be
000003f0: e685 a2bd 0480 29be c3d2 a13d 0653 ffbd

network_body._body_endoder.seq_layers.2.bias f4 [128]
-0.027627226 0.00067454256 0.001110513 -0.00600878 -0.025450848 -0.023491206 -0.058294967 0.020241834
-0.05275617 0.009610482 -0.06328477 0.033514913 0.057684414 -0.011158592 -0.019969754 0.02873102
0.059024304 -0.0373048 -0.012096526 -0.017450778 -0.05319778 0.00042124747 0.004072494 -0.039176818
-6.752784e-05 0.07524546 -0.009445341 -0.007980123 0.0034654525 0.059873566 0.00047152815 -0.04516572
-0.0648815 -0.07490912 -0.040402282 0.03125422 -0.05101643 -0.0141313085 0.04813303 0.019015063
0.023592694 -0.05991096 0.028306993 0.047578316 0.009769041 0.07594734 0.016256684 -0.0085037835
-0.05458337 0.057200655 -0.011743175 -0.0138475085 -0.028937753 0.06337038 -0.042176377 -0.04929128
-0.028423151 -0.031557057 0.009533618 -0.04821384 -0.04343073 -0.03317461 -0.05832984 -0.0032391592
0.016002342 0.016835256 -0.03826557 -0.09773398 -0.040487744 0.011032897 -0.06569422 -0.035654973
0.010182393 -0.036237236 -0.06303811 -0.012605737 -0.01456806 -0.03527596 -0.043701854 -0.045369342
-0.0050197765 -0.007995074 -0.04970833 0.04191449 0.054109525 0.00080397504 -0.043118518 -0.03279631
0.009989515 -0.040861502 0.016695982 -0.038187936 0.07833233 -0.011229039 -0.03533295 -0.026525578
-0.009418693 -0.009179238 0.024726463 0.0050998623 -0.00041979604 0.020246303 0.04115643 -0.012774016
0.013604501 0.03127118 -0.013973864 -0.008960604 0.0825752 0.024986336 -0.011095235 -0.0014182169
-0.05526012 0.024407536 -0.027287848 0.008244028 -0.018743454 -0.036982495 -0.03637398 0.038130805
0.041258574 -0.0159271 0.007768881 -0.04195614 0.04622692 0.019544855 -0.022261214 -0.032441277
00000000: 7e52 e2bc c9d3 303a a28e 913a 4de5 c4bb
00000010: 4c7e d0bc a170 c0bc b4c6 6ebd 34d2 a53c
00000020: db16 58bd 4875 1d3c 729b 81bd ef46 093d
00000030: 7e46 6c3d 87d2 36bc 9c97 a3bc 515d eb3c
00000040: 78c3 713d ebcc 18bd 8230 46bc eff4 8ebc
00000050: eae5 59bd e1da dc39 8e72 853b df77 20bd
00000060: bc9d 8db8 4b1a 9a3d a2c0 1abc 10bf 02bc
00000070: a51c 633b fc3d 753d 7037 f739 b1ff 38bd
00000080: 98e0 84bd f469 99bd dd7c 25bd 6d04 003d
00000090: 9bf6 50bd 0187 67bc 2427 453d 7ac5 9b3c
000000a0: 7745 c13c 3265 75bd 11e4 e73c 7be1 423d
000000b0: 540e 203c 478a 9b3d bd2c 853c 7453 0bbc
000000c0: d092 5fbd 3c4b 6a3d 7266 40bc a9e0 62bc
000000d0: de0e edbc 54c8 813d 23c1 2cbd a7e5 49bd
000000e0: abd7 e8bc f941 01bd e432 1c3c e07b 45bd
000000f0: 6ce4 31bd 1ae2 07bd 45eb 6ebd 1348 54bb
00000100: 5817 833c 17ea 893c 5cbc 1cbd c128 c8bd
00000110: 7ad6 25bd 53c3 343c b18a 86bd f30a 12bd
00000120: 0dd4 263c 7f6d 14bd 201a 81bd 4b88 4ebc
00000130: dfae 6ebc 867d 10bd b700 33bd 34d5 39bd
00000140: f07c a4bb c5fd 02bc f69a 4bbd 87ae 2b3d
00000150: f3a1 5d3d dac1 523a 0b9d 30bd 6c55 06bd
00000160: 10ab 233c 645e 27bd 03c6 883c f46a 1cbd
00000170: b36c a03d 01fa 37bc 49b9 10bd 2b4c d9bc
00000180: dd50 1abc 8464 16bc 278f ca3c bf1c a73b
00000190: 1218 dcb9 93db a53c a593 283d 1b4a 51bc
000001a0: 6ae5 5e3c 3516 003d a2f2 64bc 7fcf 12bc
000001b0: 301d a93d 25b0 cc3c cac8 35bc 76e3 b9ba
000001c0: 7058 62bd 50f2 c73c c48a dfbc f611 073c
000001d0: df8b 99bc f57a 17bd e2fc 14bd 0c2f 1c3d
000001e0: c0fe 283d 8d79 82bc 1992 fe3b 34da 2bbd
000001f0: 7058 3d3d 881c a03c 265d b6bc 25e1 04bd

action_model._continuous_distribution.log_sigma f4 [1, 2]
-0.5760612 -0.35514545
00000000: bf78 13bf a0d5 b5be

action_model._continuous_distribution.mu.weight f4 [2, 128]
-0.07257108 -0.09540146 -0.093309835 0.014243806 -0.008757745 -0.06066949 -0.040005185 0.004568444
-0.042887367 -0.0009032703 -0.09030677 -0.002920738 -0.121673636 -0.08364442 -0.018002119 0.040440395
0.05507655 -0.03081575 -0.07862076 -0.10937859 -0.029033523 -0.07227385 -0.09752479 -0.068606414
-0.07420946 0.06925978 -0.07658717 -0.06540933 0.02918285 0.05789156 0.015023575 -0.036769215
-0.01452405 -0.03924473 -0.029516956 -0.1020668 -0.034079377 -0.058045607 0.067500144 -0.06989248
-0.0696938 -0.03604178 0.01532584 0.02050141 0.027160916 0.08343674 -0.092773706 -0.09635706
-0.07721221 0.07557765 0.016322924 -0.07130317 -0.052934784 0.046639495 -0.06893929 -0.032153226
-0.08259273 -0.034751557 -0.07867643 -0.058411546 -0.036751367 -0.06442736 -0.04628925 -0.08091723
-0.12017287 0.038799234 -0.031280633 -0.027297711 -0.07787051 -0.06624516 -0.040163223 -0.0653546
-0.086740434 -0.03277323 -0.050591346 -0.0050401273 -0.09584036 -0.050781664 -0.037091758 -0.03972013
-0.05269673 -0.014113687 -0.04426629 -0.024671929 0.03892255 -0.031958174 -0.03337203 -0.05239152
-0.08259201 -0.08463204 -0.095791005 0.0070856414 0.054520126 -0.098587535 -0.0746187 -0.06460332
-0.08860154 -0.07006602 0.014553413 -0.00054423674 0.019498704 -0.08908149 0.045354944 -0.06768697
-0.072431765 0.039953317 0.026584132 0.01505002 0.08096877 0.052100334 -0.084435664 0.037860166
-0.043418918 -0.099597745 -0.0667085 0.0009713622 -0.07771576 -0.07022761 -0.031007245 0.027988805
0.019918345 -0.112398036 0.04792791 -0.027183382 -0.107390285 -0.10515815 -0.042019833 -0.044178586
0.05907921 0.013629959 0.09439963 0.07746211 0.030907288 -0.0027170314 0.018958494 -0.077514686
0.02857928 -0.09575926 0.0049893367 -0.088397615 0.006489857 -0.0011375747 0.024165777 0.0985588
-0.008959287 0.057011068 0.032825865 0.023882004 0.013010996 0.044285715 0.054403313 0.019006137
0.010082806 -0.0359298 -0.0073860358 0.075945444 0.061611496 0.023878826 -0.030212611 0.0022151915
0.044698764 0.046379283 0.013530056 0.031373847 0.01312416 0.06650721 0.040381324 -0.04123981
0.14026292 0.04929498 -0.10247676 -0.16115986 0.08158738 -0.0064472035 0.009507716 -0.032892954
0.030446691 0.027525395 0.09080616 0.0015260972 0.04803612 -0.054018706 0.03928514 0.013362276
0.049550522 -0.0062117744 0.08250991 0.045276117 -0.00049646647 0.040121358 0.011291222 0.08981618
0.003262271 0.02651303 0.022390205 0.0192342 0.045035057 -0.042564172 0.02593042 0.038846288
0.120704286 0.016729197 0.06284514 0.05937858 -0.06285164 0.006169661 0.030995263 0.020681888
0.06127184 -0.01095501 0.03274156 0.09131761 -0.119900584 -0.039002106 0.035265278 0.061466184
0.052669108 0.058842827 0.0060403375 0.01573277 -0.02043049 0.06734359 0.013842835 0.050328664
0.0048032855 0.08771738 0.0065495567 0.011934541 0.06203434 -0.008632067 0.0010071762 0.012452873
0.114593685 0.09490281 0.045476325 0.07202369 -0.022485089 0.045290943 0.033836037 0.028860139
-0.005642269 -0.0017870809 0.061738316 -0.058826827 0.023149101 0.051818416 0.046736 -0.068499535
-0.102495484 -0.04995912 0.08033618 3.7405225e-05 0.0015483308 0.070480786 0.026613388 -0.007572505
00000000: 25a0 94bd d761 c3bd 3a19 bfbd da5e 693c
00000010: a57c 0fbc 9280 78bd 7adc 23bd e3b2 953b
00000020: aaaa 2fbd 72c9 6cba c1f2 b8bd da69 3fbb
00000030: 0730 f9bd c44d abbd 2e79 93bc d4a4 253d
00000040: f397 613d 5071 fcbc ec03 a1bd e201 e0bd
00000050: b6d7 edbc 5004 94bd 14bb c7bd 8581 8cbd
00000060: 21fb 97bd 12d8 8d3d bcd9 9cbd 54f5 85bd
00000070: df10 ef3c b31f 6d3d 7125 763c 519b 16bd
00000080: 48f6 6dbc 15bf 20bd 8bcd f1bc 6608 d1bd
00000090: d196 0bbd 3bc1 6dbd 843d 8a3d ca23 8fbd
000000a0: 9fbb 8ebd 8ca0 13bd 3b19 7b3c 93f2 a73c
000000b0: 9280 de3c e2e0 aa3d 2400 bebd da56 c5bd
000000c0: 6f21 9ebd 74c8 9a3d a7b7 853c 6507 92bd
000000d0: 25d2 58bd 0e09 3f3d 0b30 8dbd 1ab3 03bd
000000e0: 6126 a9bd a657 0ebd 1c21 a1bd f240 6fbd
000000f0: 9a88 16bd 7ef2 83bd cc99 3dbd efb7 a5bd
00000100: 321d f6bd f2eb 1e3d 1f20 00bd 739f dfbc
00000110: 937a 9fbd 8bab 87bd 3182 24bd a2d8 85bd
00000120: f8a4 b1bd 393d 06bd df38 4fbd a727 a5bb
00000130: f347 c4bd 6f00 50bd 87ed 17bd 93b1 22bd
00000140: 87d8 57bd 183d 67bc 9250 35bd c91c cabc
00000150: 406d 1f3d 93e6 02bd 1cb1 08bd 7e98 56bd
00000160: 0026 a9bd 9053 adbd 132e c4bd ab2e e83b
00000170: 7f50 5f3d 43e8 c9bd b0d1 98bd bf4e 84bd
00000180: b974 b5bd c67e 8fbd 7071 6e3c 1cab 0eba
00000190: bfbb 9f3c 5b70 b6bd 1bc6 393d 779f 8abd
000001a0: 1b57 94bd 17a6 233d f7c6 d93c 5c94 763c
000001b0: f4d2 a53d 2967 553d 9bec acbd 4313 1b3d
000001c0: 09d8 31bd e7f9 cbbd 779e 88bd 04a3 7e3a
000001d0: 7129 9fbd 7ed3 8fbd e802 febc c748 e53c
000001e0: cc2b a33c f130 e6bd 0e50 443d afaf debc
000001f0: 70ef dbbd 285d d7bd fd1c 2cbd 9bf4 34bd
00000200: 0bfd 713d 3150 5f3c 9854 c13d 74a4 9e3d
00000210: 4831 fd3c 3910 32bb d84e 9b3c 05c0 9ebd
00000220: 181f ea3c 6e1d c4bd 977d a33b cf09 b5bd
00000230: dea8 d43b ac1a 95ba 4ff7 c53c 32d9 c93d
00000240: f9c9 12bc 7084 693d 6a74 063d 31a4 c33c
00000250: 132c 553c f064 353d 02d6 5e3d c2b2 9b3c
00000260: 5b32 253c 202b 13bd 8f06 f2bb 4989 9b3d
00000270: 565c 7c3d 879d c33c 7080 f7bc bf2c 113b
00000280: 0d16 373d 34f8 3d3d 2bad 5d3c dd81 003d
00000290: b706 573c ef34 883d e366 253d 13eb 28bd
000002a0: 15a1 0f3e 88e9 493d 56df d1bd 1707 25be
000002b0: 4917 a73d 1043 d3bb 40c6 1b3c c3ba 06bd
000002c0: 576b f93c f07c e13c 94f8 b93d 5307 c83a
000002d0: 86c1 443d b842 5dbd 74e9 203d 73ed 5a3c
000002e0: 7df5 4a3d 248c cbbb f5fa a83d 7373 393d
000002f0: 4d25 02ba 4b56 243d d1fe 383c 8cf1 b73d
00000300: d3cb 553b db31 d93c aa6b b73c 0a91 9d3c
00000310: ae76 383d c557 2ebd 086c d43c 491d 1f3d
00000320: cf33 f73d ab0b 893c f4b4 803d f436 733d
00000330: 5cb8 80bd de2a ca3b c7e9 fd3c 106d a93c
00000340: 2ef8 7a3d a47c 33bc 041c 063d ba04 bb3d
00000350: 708e f5bd acc0 1fbd 5372 103d f7c3 7b3d
00000360: 90bb 573d 2d05 713d 06ee c53b 03e2 803c
00000370: d85d a7bc 70eb 893d 0fcd 623c 6e25 4e3d
00000380: e164 9d3b 2ba5 b33d aa9d d63b 1889 433c
00000390: b817 7e3d 836d 0dbc 3a03 843a 2307 4c3c
000003a0: 18b0 ea3d 685c c23d 6245 3a3d 2881 933d
000003b0: a632 b8bc ff82 393d a897 0a3d 196c ec3c
000003c0: c8e2 b8bb 7c3c eaba 51e1 7c3d 66f4 70bd
000003d0: 2fa3 bd3c 8c3f 543d 3f6e 3f3d 7c49 8cbd
000003e0: 27e9 d1bd efa1 4cbd 4c87 a43d 8ee3 1c38
000003f0: 5cf1 ca3a 3b58 903d 5204 da3c c722 f8bb

action_model._continuous_distribution.mu.bias f4 [2]
0.10465936 -0.022705877
00000000: a657 d63d ad01 babc
