MachineLearningDev/results/ppo/MoveToGoal/checkpoint.pt (torch, 143586 bytes, 10 tensors)

network_body._body_endoder.seq_layers.0.weight f4 [128, 1]
000000 80 18 75 3f 45 44 c3 3f 42 ab ac 3f 71 d6 bc 3c
       0.9574051 1.5255209 1.3489764 0.023051472
000010 df 1d 75 bf 78 70 e8 bf e3 ac 65 3f 21 85 e1 3f
       -0.95748705 -1.8159323 0.8971693 1.7618753
000020 f2 7f 65 bf b3 3e e1 bd 51 2b 77 bf 5e 16 50 be
       -0.89648354 -0.10998287 -0.9655047 -0.20321032
000030 c8 47 be 3d 3f 39 b0 3d b2 5d 8a 3f f4 21 b7 be
       0.09291035 0.08604669 1.0809844 -0.35768092
000040 47 13 65 3f 2e 35 2b 3f 45 fb e9 3f fa 00 28 3f
       0.8948254 0.6687802 1.8279806 0.6562649
000050 9b cb ee 3c 09 77 b6 bf bb f5 04 bd e8 2c d7 be
       0.029149821 -1.4255077 -0.03246091 -0.42026448
000060 c7 37 ac 3f 26 55 25 be 6a 00 05 3f 3e 48 49 3f
       1.3454522 -0.16145763 0.51953757 0.7862586
000070 5e 7e ac bf 90 18 2b 3e a6 b8 0a 3f f2 04 f5 3e
       -1.3476064 0.16708589 0.54188 0.47855335
000080 a3 d6 d4 3f 6a 31 ec 3f 85 42 7e bf 63 02 9f 3e
       1.6628002 1.845258 -0.9932025 0.31056508
000090 c8 1c ab bd e8 ad 8e bd 43 37 c5 3e e1 98 37 3e
       -0.08355099 -0.06966764 0.38518724 0.17929412
0000a0 3e 1a 3c bc b7 13 6a be 36 b2 2d bf a1 90 ab bf
       -0.011480866 -0.22859083 -0.67850053 -1.3403512
0000b0 8a d2 9e 3e 1c 21 b1 3d 27 f4 a4 bf 0b e5 ef 3f
       0.31020004 0.08648893 -1.2887009 1.8741773
0000c0 a1 85 8f 3f 60 cf aa 3f a6 99 1f bf 85 eb 7f 3f
       1.1212655 1.3344536 -0.62343824 0.9996875
0000d0 3d 16 4e 3f 8b 39 6a bf 65 54 8e be 13 b8 14 3e
       0.8050268 -0.91494054 -0.27798763 0.14523344
0000e0 99 ce 83 be 88 95 af bf ed 42 38 3f b4 ee 6a be
       -0.2574356 -1.3717508 0.7197712 -0.2294262
0000f0 67 38 24 3f 84 86 11 3f c7 db a0 3f d2 d4 96 be
       0.64148563 0.5684588 1.2567071 -0.29459244
000100 d5 9c 55 bf 7e f9 c0 3e 3f 5d 83 bf 96 be eb bd
       -0.8344243 0.37690347 -1.0262831 -0.11510961
000110 db 7c 46 bf 41 82 d5 3e 70 3a 73 bf 04 c8 12 3f
       -0.77534264 0.41700938 -0.95011044 0.5733645
000120 3e b8 80 bf 46 5d 9f bf e4 9d 73 3e 75 04 5f be
       -1.0056226 -1.245034 0.23790699 -0.21779044
000130 40 73 25 bf 14 4f 8e 3f 47 5f e1 bf 45 57 a6 3f
       -0.6462898 1.1117883 -1.7607201 1.2995383
000140 2e 78 4e be 59 fc 98 3e d8 7a 30 bf 0c e0 35 3f
       -0.20163032 0.29880026 -0.68937445 0.71044993
000150 ab a9 6d be 58 47 2c 3f 9d e4 bc be 79 54 83 3f
       -0.23209254 0.6729636 -0.36893168 1.0260154
000160 47 f4 fe be c9 5f c9 bf b2 a3 94 3f c8 4c ea 3e
       -0.49795744 -1.5732356 1.1612456 0.45761704
000170 6a fd 37 3e fe 71 c5 be d8 41 29 40 44 3e 85 bf
       0.17967764 -0.38563532 2.6446438 -1.0409627
000180 9e fb 3d bf 1d 2b ac bf 06 68 c6 3f 2c ee f5 3e
       -0.7421206 -1.3450657 1.5500495 0.48033273
000190 59 8a 47 3f d4 fe 9a 3f 8d 5c 16 3f 3e 9f 7c 3f
       0.77945477 1.2109017 0.5873497 0.98680484
0001a0 cb 4c ba 3e 93 bf b5 be f2 c7 8b 3e 99 15 ab 3f
       0.36386713 -0.35497722 0.27300984 1.3365966
0001b0 b4 86 28 3e 45 5a 63 3e 2a 74 88 bf 2e d4 be 3f
       0.16457635 0.22202404 -1.066045 1.4908502
0001c0 94 9a 42 be 27 ca ee 3f df e1 3e be e3 49 92 3e
       -0.1900428 1.8655442 -0.1864085 0.28571996
0001d0 f6 c8 e7 be e4 29 08 c0 65 cc 30 be 11 2c 33 3f
       -0.4527051 -2.1275568 -0.1726547 0.69989115
0001e0 ac 38 12 40 4d 1a 5c be d4 7e d6 3d 13 77 91 bf
       2.284709 -0.21494408 0.10473409 -1.1364464
0001f0 63 2b 0e 3f a8 8f 54 bf 7a 1a 40 3d 61 dc 45 bf
       0.5553495 -0.830317 0.04690025 -0.77289397

network_body._body_endoder.seq_layers.0.bias f4 [128]
000000 00 00 00 00 00 00 00 00 00 00 00 00 00 00 00 00
       0.0 0.0 0.0 0.0
000010 00 00 00 00 00 00 00 00 00 00 00 00 00 00 00 00
       0.0 0.0 0.0 0.0
000020 00 00 00 00 00 00 00 00 00 00 00 00 00 00 00 00
       0.0 0.0 0.0 0.0
000030 00 00 00 00 00 00 00 00 00 00 00 00 00 00 00 00
       0.0 0.0 0.0 0.0
000040 00 00 00 00 00 00 00 00 00 00 00 00 00 00 00 00
       0.0 0.0 0.0 0.0
000050 00 00 00 00 00 00 00 00 00 00 00 00 00 00 00 00
       0.0 0.0 0.0 0.0
000060 00 00 00 00 00 00 00 00 00 00 00 00 00 00 00 00
       0.0 0.0 0.0 0.0
000070 00 00 00 00 00 00 00 00 00 00 00 00 00 00 00 00
       0.0 0.0 0.0 0.0
000080 00 00 00 00 00 00 00 00 00 00 00 00 00 00 00 00
       0.0 0.0 0.0 0.0
000090 00 00 00 00 00 00 00 00 00 00 00 00 00 00 00 00
       0.0 0.0 0.0 0.0
0000a0 00 00 00 00 00 00 00 00 00 00 00 00 00 00 00 00
       0.0 0.0 0.0 0.0
0000b0 00 00 00 00 00 00 00 00 00 00 00 00 00 00 00 00
       0.0 0.0 0.0 0.0
0000c0 00 00 00 00 00 00 00 00 00 00 00 00 00 00 00 00
       0.0 0.0 0.0 0.0
0000d0 00 00 00 00 00 00 00 00 00 00 00 00 00 00 00 00
       0.0 0.0 0.0 0.0
0000e0 00 00 00 00 00 00 00 00 00 00 00 00 00 00 00 00
       0.0 0.0 0.0 0.0
0000f0 00 00 00 00 00 00 00 00 00 00 00 00 00 00 00 00
       0.0 0.0 0.0 0.0
000100 00 00 00 00 00 00 00 00 00 00 00 00 00 00 00 00
       0.0 0.0 0.0 0.0
000110 00 00 00 00 00 00 00 00 00 00 00 00 00 00 00 00
       0.0 0.0 0.0 0.0
000120 00 00 00 00 00 00 00 00 00 00 00 00 00 00 00 00
       0.0 0.0 0.0 0.0
000130 00 00 00 00 00 00 00 00 00 00 00 00 00 00 00 00
       0.0 0.0 0.0 0.0
000140 00 00 00 00 00 00 00 00 00 00 00 00 00 00 00 00
       0.0 0.0 0.0 0.0
000150 00 00 00 00 00 00 00 00 00 00 00 00 00 00 00 00
       0.0 0.0 0.0 0.0
000160 00 00 00 00 00 00 00 00 00 00 00 00 00 00 00 00
       0.0 0.0 0.0 0.0
000170 00 00 00 00 00 00 00 00 00 00 00 00 00 00 00 00
       0.0 0.0 0.0 0.0
000180 00 00 00 00 00 00 00 00 00 00 00 00 00 00 00 00
       0.0 0.0 0.0 0.0
000190 00 00 00 00 00 00 00 00 00 00 00 00 00 00 00 00
       0.0 0.0 0.0 0.0
0001a0 00 00 00 00 00 00 00 00 00 00 00 00 00 00 00 00
       0.0 0.0 0.0 0.0
0001b0 00 00 00 00 00 00 00 00 00 00 00 00 00 00 00 00
       0.0 0.0 0.0 0.0
0001c0 00 00 00 00 00 00 00 00 00 00 00 00 00 00 00 00
       0.0 0.0 0.0 0.0
0001d0 00 00 00 00 00 00 00 00 00 00 00 00 00 00 00 00
       0.0 0.0 0.0 0.0
0001e0 00 00 00 00 00 00 00 00 00 00 00 00 00 00 00 00
       0.0 0.0 0.0 0.0
0001f0 00 00 00 00 00 00 00 00 00 00 00 00 00 00 00 00
       0.0 0.0 0.0 0.0

network_body._body_endoder.seq_layers.2.weight f4 [128, 128]
000000 8e bf bd bd 68 d8 96 bd ef 63 e3 3c 0a 0b 24 bd
       -0.09265052 -0.07365495 0.027757613 -0.04004959
000010 83 4b 83 3d 59 e4 02 3d 17 ce 1a be 8a 73 da 3c
       0.06410887 0.03195605 -0.1511768 0.026666421
000020 b2 6a 10 bd e3 a3 d3 3d 79 c5 13 3d 87 06 81 bd
       -0.035258003 0.10333993 0.036076996 -0.06300073
000030 5e 22 a9 bd ab 3f b4 3d fb 3d d6 bc 4e bc 13 3d
       -0.08258508 0.08801206 -0.026152601 0.036068253
000040 15 68 f2 bd cb ce d3 bc 39 5f f3 bd 23 8a d4 bd
       -0.11836258 -0.025855443 -0.11883397 -0.1037791
000050 19 69 49 3d df 32 8b 3d 61 8e a6 3c 91 fb 2d bd
       0.049172495 0.06796812 0.020331563 -0.04247624
000060 42 26 46 be cf e3 26 3b 4d 5c 50 be 02 8f 61 3d
       -0.19350532 0.0025465374 -0.2034771 0.055068024
000070 ca 01 c8 bc 37 09 de bd 8a a7 89 3d 01 55 0f 3d
       -0.024414916 -0.10841601 0.06721409 0.034993175
000080 99 63 0e be 19 2d 3e 3e 1d ce d1 bc 60 0d 76 3d
       -0.13905181 0.18571891 -0.025610978 0.06007135
000090 c2 14 1d 3d 24 6e c0 bd f1 bb 39 bd 55 60 00 3c
       0.038349874 -0.09396008 -0.04534525 0.007835467
0000a0 44 d9 2f 3d 80 b4 bc bd af 71 6c bd fd 61 97 bd
       0.04293181 -0.09214115 -0.057725605 -0.07391737
0000b0 bd 29 98 bc 7a 8b 3a bb 45 90 ad bc 65 8e 8c 3d
       -0.01857459 -0.0028464482 -0.021186957 0.06863097
0000c0 ce 20 8e bb 87 3d 0b be 81 3a 8b 3c 00 23 83 bd
       -0.0043374067 -0.1359769 0.01699567 -0.0640316
0000d0 25 ec 5c 3e 97 f8 c8 3c 19 9e ec 3d d4 9c 81 3d
       0.21574457 0.0245326 0.11553592 0.06328741
0000e0 08 89 ae bd 2c cd 8a bd bb da 42 3d 29 ca 64 3d
       -0.085222304 -0.06777415 0.04757188 0.055856857
0000f0 15 fd df bd 3d a7 77 bd 55 3e a0 3d 47 6d fb 3d
       -0.109369434 -0.060462225 0.07824389 0.122767024
000100 df a6 dd bc 32 61 1b 3e 70 e0 fe 3c 47 51 af bc
       -0.02705711 0.15173796 0.03111288 -0.02140106
000110 1c ed 6a be 1c e8 ae bd 06 5f ac bd fb f6 e8 3d
       -0.22942013 -0.08540365 -0.08416562 0.11375233
000120 c2 29 85 bd 9f 11 76 3d cc bb ca bd 98 93 ea bd
       -0.06502105 0.0600754 -0.09899101 -0.114539325
000130 74 ba c6 bb b1 86 84 3d 87 8a fd bb 2b e2 ca bd
       -0.0060647074 0.06471003 -0.007737461 -0.09906419
000140 bb cd 4c bd 5b 81 49 3c 0c 08 a9 bd 65 da 19 be
       -0.050000887 0.012298907 -0.08253488 -0.15024717
000150 15 d0 19 3e 4e 01 fd 3d 19 f2 22 bd 61 94 98 3d
       0.15020783 0.123537645 -0.039781664 0.07450176
000160 7b 92 37 3d 93 c6 5f bd 30 b0 9a 3b 6d 4c 0c 3d
       0.04481743 -0.054632735 0.00472071 0.034252573
000170 cd f2 45 3b 73 1c 58 be 95 0a 57 3c ba a8 f1 3a
       0.0030204535 -0.21104603 0.013125082 0.0018437125
000180 db 6f 1f 3d a2 7e 17 be 35 5c bd bb 1d 47 a1 3d
       0.038925033 -0.147944 -0.005778814 0.07874892
000190 b2 56 91 3d 7d 5a a7 bd 3d 65 89 bd 37 dc 2a 3d
       0.07096614 -0.08171556 -0.06708763 0.04171392
0001a0 f5 44 c7 bd bb d4 ed bc 9d 7e bf bc 5d fe af 3b
       -0.097299494 -0.029032102 -0.023375804 0.0053708986
0001b0 97 21 55 bd 8c 75 ac 3d d7 90 7f 3a 88 38 9e bd
       -0.052033987 0.08420858 0.0009749061 -0.07725626
0001c0 51 7b a2 bd 44 c1 2f 3b df 54 d6 3c 94 f0 63 3a
       -0.07933677 0.0026818076 0.026163517 0.0008695212
0001d0 a2 28 3c 3d 5b 02 3a bd 11 aa 85 3e c0 6a 99 3d
       0.045937188 -0.045412403 0.26106313 0.07491064
0001e0 4f 70 00 3e 67 ce 9b 3c 58 ec 0d 3e 67 7e ce 3d
       0.12542842 0.019019319 0.13859689 0.10082703
0001f0 55 1f 6f 3d 4d 84 12 3e 84 8e 01 3e 24 90 cd bc
       0.05837949 0.14308281 0.12652022 -0.025093146
000200 e9 e3 38 bd 9b 8f a6 3d d1 56 8a 3c 5d 78 06 3e
       -0.045139227 0.08132859 0.0168871 0.13131852
000210 02 2e 22 3d 40 04 c2 3d a6 56 37 bc 25 02 0f 3e
       0.039594658 0.09473467 -0.011190092 0.13965662
000220 0c 5e 75 bd cc 0a 95 bc 5d ba 00 3d 21 86 c3 3e
       -0.059904143 -0.018193625 0.03142773 0.3818827
000230 ef 99 ee bd cf c5 50 be cb d3 f2 3d 99 c7 25 3e
       -0.11650454 -0.20387958 0.118568026 0.16189422
000240 4a d5 02 3d 35 96 1c 3d e5 c2 af 3d 8b d9 0a be
       0.03194169 0.038229186 0.08582095 -0.13559549
000250 e3 6a b5 bc 86 74 f6 bd 19 a1 81 3d ce bc fa 3b
       -0.022145694 -0.12033944 0.06329555 0.007651902
000260 88 29 3d 3c 1a e4 08 3e d1 a7 d2 3c f0 2b 93 bd
       0.011545546 0.13368264 0.025714787 -0.07186115
000270 72 31 9d bc 28 87 c5 bd ca c7 93 3d 4d e2 b0 bd
       -0.019188616 -0.0964492 0.07215841 -0.086369134
000280 42 df 1c 3e 63 42 15 3e e4 69 9c 3c 29 49 bc bd
       0.15319541 0.14576106 0.019093461 -0.09193642
000290 22 24 5f bc d4 0b e1 bd 1c 5b a4 bb df ca 5b 3d
       -0.013619455 -0.10988584 -0.005015744 0.05366027
0002a0 3e a3 49 3d 87 f0 15 bb 2c b9 82 bd ac fd 28 bb
       0.049227946 -0.0022878961 -0.06382975 -0.0025785966
0002b0 1e 97 54 39 44 3c 27 be ce b0 dd 3b 89 03 23 bd
       0.00020274191 -0.16331583 0.0067654615 -0.039798293
0002c0 43 a0 92 3c dd 34 36 3d db de 3b bd bc ab f7 bb
       0.017898684 0.044484008 -0.04586683 -0.007558314
0002d0 21 6e 62 bb cf ad 37 bd ec f2 d3 3d ae 5a b0 3b
       -0.0034550505 -0.04484349 0.10349068 0.0053819036
0002e0 db 7a ba bd ac 9a 42 3e 37 db 72 3b 2d d5 4c bd
       -0.09105464 0.19004315 0.0037056932 -0.050007988
0002f0 77 b3 00 3d 36 af 46 3d 94 2a 3e be b1 75 23 be
       0.03142115 0.048506938 -0.1857093 -0.15962864
000300 a2 d4 d7 3d 9a 84 1e 3d 47 58 5b 3d ae d9 17 3e
       0.10538603 0.038700677 0.053550985 0.14829132
000310 97 37 23 bd 16 53 08 3e 60 a5 75 3d 41 03 b4 3d
       -0.039847936 0.13312945 0.059972167 0.08789683
000320 db 8f 59 3d b5 00 cb 3d ca 0b 35 3d f3 f8 5e 3d
       0.053115707 0.09912244 0.044200696 0.054436635
000330 f4 e8 5b 3c 8a a0 99 bd d7 8e 24 be 6f 32 c6 bd
       0.01342224 -0.075013235 -0.16070114 -0.09677588
000340 21 3d 6f be cd 13 65 3b cb be e9 3c 93 35 cb 3d
       -0.23363163 0.003495443 0.02853336 0.09922328
000350 c4 01 05 3d e8 55 01 3d c2 5b 1e 3c 0c aa 61 3d
       0.032472387 0.031576067 0.009665431 0.05509381
000360 34 e8 37 3d e5 a0 24 3d d6 31 a0 3d 47 48 5a 3d
       0.04489918 0.040192503 0.078220055 0.053291585
000370 c4 a4 f2 bb ff d5 46 bd 69 7e 55 3d 3d c7 24 be
       -0.0074048955 -0.048543926 0.052122507 -0.16091628
000380 d7 e8 68 be f5 d1 3d 3e 92 29 81 3d 9c 67 e0 bd
       -0.22745071 0.18537124 0.06306757 -0.10957262
000390 e3 55 97 bd bf 1e d8 bd 9a f8 30 3d 9e 44 3a bc
       -0.073894285 -0.10552739 0.043205835 -0.011368899
0003a0 6a 5d 73 3d 57 5d 6c 3c 83 b1 e0 bd 75 df b8 3c
       0.05941526 0.014426551 -0.10971358 0.02256749
0003b0 89 5e 22 be 13 4e 99 bd 4a 2d ba bd 6f 30 69 bd
       -0.15856375 -0.074855946 -0.090906695 -0.056930955
0003c0 52 55 97 bd 85 bd 9d bd 35 3d 8c 3b e6 4d bb 3d
       -0.073893204 -0.077021636 0.0042797574 0.09145717
0003d0 fa fc ee bc 7f bb 6b bc ed 91 ce 3c 87 05 20 3e
       -0.029173363 -0.014387964 0.025216067 0.15627109
0003e0 85 eb c4 3d 0b 23 eb bd d1 e5 33 3c b1 16 7d 3d
       0.09615234 -0.11481293 0.0109800855 0.06178922
0003f0 89 4a 51 3e b8 e3 1c 3c aa 7f 45 3d b3 75 87 bd
       0.20438589 0.009575777 0.048217453 -0.06614246

network_body._body_endoder.seq_layers.2.bias f4 [128]
000000 00 00 00 00 00 00 00 00 00 00 00 00 00 00 00 00
       0.0 0.0 0.0 0.0
000010 00 00 00 00 00 00 00 00 00 00 00 00 00 00 00 00
       0.0 0.0 0.0 0.0
000020 00 00 00 00 00 00 00 00 00 00 00 00 00 00 00 00
       0.0 0.0 0.0 0.0
000030 00 00 00 00 00 00 00 00 00 00 00 00 00 00 00 00
       0.0 0.0 0.0 0.0
000040 00 00 00 00 00 00 00 00 00 00 00 00 00 00 00 00
       0.0 0.0 0.0 0.0
000050 00 00 00 00 00 00 00 00 00 00 00 00 00 00 00 00
       0.0 0.0 0.0 0.0
000060 00 00 00 00 00 00 00 00 00 00 00 00 00 00 00 00
       0.0 0.0 0.0 0.0
000070 00 00 00 00 00 00 00 00 00 00 00 00 00 00 00 00
       0.0 0.0 0.0 0.0
000080 00 00 00 00 00 00 00 00 00 00 00 00 00 00 00 00
       0.0 0.0 0.0 0.0
000090 00 00 00 00 00 00 00 00 00 00 00 00 00 00 00 00
       0.0 0.0 0.0 0.0
0000a0 00 00 00 00 00 00 00 00 00 00 00 00 00 00 00 00
       0.0 0.0 0.0 0.0
0000b0 00 00 00 00 00 00 00 00 00 00 00 00 00 00 00 00
       0.0 0.0 0.0 0.0
0000c0 00 00 00 00 00 00 00 00 00 00 00 00 00 00 00 00
       0.0 0.0 0.0 0.0
0000d0 00 00 00 00 00 00 00 00 00 00 00 00 00 00 00 00
       0.0 0.0 0.0 0.0
0000e0 00 00 00 00 00 00 00 00 00 00 00 00 00 00 00 00
       0.0 0.0 0.0 0.0
0000f0 00 00 00 00 00 00 00 00 00 00 00 00 00 00 00 00
       0.0 0.0 0.0 0.0
000100 00 00 00 00 00 00 00 00 00 00 00 00 00 00 00 00
       0.0 0.0 0.0 0.0
000110 00 00 00 00 00 00 00 00 00 00 00 00 00 00 00 00
       0.0 0.0 0.0 0.0
000120 00 00 00 00 00 00 00 00 00 00 00 00 00 00 00 00
       0.0 0.0 0.0 0.0
000130 00 00 00 00 00 00 00 00 00 00 00 00 00 00 00 00
       0.0 0.0 0.0 0.0
000140 00 00 00 00 00 00 00 00 00 00 00 00 00 00 00 00
       0.0 0.0 0.0 0.0
000150 00 00 00 00 00 00 00 00 00 00 00 00 00 00 00 00
       0.0 0.0 0.0 0.0
000160 00 00 00 00 00 00 00 00 00 00 00 00 00 00 00 00
       0.0 0.0 0.0 0.0
000170 00 00 00 00 00 00 00 00 00 00 00 00 00 00 00 00
       0.0 0.0 0.0 0.0
000180 00 00 00 00 00 00 00 00 00 00 00 00 00 00 00 00
       0.0 0.0 0.0 0.0
000190 00 00 00 00 00 00 00 00 00 00 00 00 00 00 00 00
       0.0 0.0 0.0 0.0
0001a0 00 00 00 00 00 00 00 00 00 00 00 00 00 00 00 00
       0.0 0.0 0.0 0.0
0001b0 00 00 00 00 00 00 00 00 00 00 00 00 00 00 00 00
       0.0 0.0 0.0 0.0
0001c0 00 00 00 00 00 00 00 00 00 00 00 00 00 00 00 00
       0.0 0.0 0.0 0.0
0001d0 00 00 00 00 00 00 00 00 00 00 00 00 00 00 00 00
       0.0 0.0 0.0 0.0
0001e0 00 00 00 00 00 00 00 00 00 00 00 00 00 00 00 00
       0.0 0.0 0.0 0.0
0001f0 00 00 00 00 00 00 00 00 00 00 00 00 00 00 00 00
       0.0 0.0 0.0 0.0

action_model._discrete_distribution.branches.0.weight f4 [1, 128]
000000 a0 df 40 3c e1 6e 2c bb 0f d4 e1 3b 1f 33 a7 bb
       0.011772066 -0.0026311206 0.0068917344 -0.0051025297
000010 09 07 8a 3c 7b d3 fb 3b a1 b0 0e ba 68 42 57 bb
       0.016849058 0.0076851225 -0.000544319 -0.0032845978
000020 97 89 e1 bb 72 37 3b 3c b3 53 33 3c 92 f6 4a ba
       -0.006882857 0.011426793 0.010945248 -0.00077424303
000030 54 ac 9d 3b 80 6e db bb ab 61 a9 3b 9a 52 1d 3b
       0.004811803 -0.0066965222 0.0051691136 0.0024005533
000040 37 5d 0e bc 2b 48 d4 3b ec 3f 08 3c 59 fb 38 bc
       -0.008689216 0.0064783297 0.008316021 -0.011290395
000050 f8 13 5c bc 8a e8 e6 ba 7d 07 ee bb 04 cd a7 ba
       -0.013432495 -0.001761691 -0.0072640763 -0.0012802188
000060 df c2 46 b9 c3 99 91 3c 1a 3e 5c 3c 37 61 49 39
       -0.00018955347 0.017773515 0.013442541 0.00019205069
000070 91 f9 14 3c cb d9 d2 b9 3d c4 fe bb 68 7b 06 bb
       0.009092704 -0.0004021659 -0.0077748583 -0.0020520333
000080 23 23 6c bc e4 fc aa bb ad 78 80 bc cb 50 4b bb
       -0.014412674 -0.005218135 -0.015682543 -0.0031023498
000090 5d d4 8b bb 51 f9 1f 3b 12 a5 95 bb a5 1a 37 bc
       -0.004267259 0.0024410079 -0.004566797 -0.011175786
0000a0 6f 77 02 3c 0d 24 51 3c f5 39 25 3c d1 07 0b 3b
       0.0079630455 0.012764943 0.010084619 0.0021214376
0000b0 6c 7d c4 3b 4b 12 a7 bb 02 9a 32 3c ca 92 66 bc
       0.0059963968 -0.0050986162 0.010900976 -0.014073083
0000c0 93 17 a8 ba 3f fa ea bb ba 6e 80 3b 02 72 b2 3b
       -0.0012824408 -0.007170945 0.0039194496 0.0054457197
0000d0 e1 c3 c7 bb b6 d3 91 3c 27 65 78 bc 1b aa 30 bc
       -0.0060963486 0.017801147 -0.015160835 -0.010782744
0000e0 2e 39 2f ba 00 d4 6e bc fe 73 41 3c b0 3e 96 3b
       -0.00066842407 -0.014576912 0.01180744 0.0045851097
0000f0 22 ce 24 bb dd 42 bc bb 6c ce 33 bc f2 49 28 3b
       -0.0025147279 -0.0057452754 -0.010974508 0.002567884
000100 95 b6 a7 bc 7c ad 29 bc 5b 68 41 bc 0b 58 91 3c
       -0.020472804 -0.010356303 -0.011804665 0.017742177
000110 9f d9 97 3b cb ff 16 3c 2b ea e6 bb 84 50 93 ba
       0.0046340968 0.009216259 -0.007046958 -0.0011239205
000120 44 99 0e bc d7 67 f1 3b 6f bd 05 3c 23 b1 a5 3a
       -0.008703534 0.007367115 0.00816284 0.0012641292
000130 63 45 a3 3b a5 68 9a 3b d3 54 19 3c 18 99 63 bb
       0.004982637 0.0047121816 0.009358603 -0.0034728702
000140 a3 a4 84 bb f6 5e 35 3b c4 14 2c 3b c4 6b 9b bb
       -0.0040479465 0.002767501 0.0026257494 -0.0047430713
000150 32 b3 77 ba 34 68 1e 3c 8a 9f 13 3b 57 c6 88 bc
       -0.00094490044 0.009668399 0.0022525513 -0.016696138
000160 da 66 54 3a 77 60 29 bc fd a0 7f 3b 77 05 96 3b
       0.0008102484 -0.01033794 0.0039005869 0.004578288
000170 8d 3a c7 3c 65 7a 5f 3b 35 bb 00 3b cf 7b ae bb
       0.024319911 0.0034100052 0.0019642834 -0.0053248177
000180 d7 48 10 3c 94 4d 85 3a f1 f8 07 3c c8 00 e9 39
       0.008806429 0.0010170215 0.008299098 0.00044441805
000190 ef 8a 0a 3c f4 25 3c 3b 2b b1 09 3c 35 4f 44 bc
       0.008455976 0.0028709145 0.008404057 -0.011981775
0001a0 75 58 b9 39 5b 00 e8 bb b8 2e 8f 3b 8c d3 c0 3b
       0.00035351855 -0.0070801205 0.004369583 0.0058845934
0001b0 2c 5a 21 3c 31 ce bb 3b a8 c8 7e bc b7 67 f3 3b
       0.009848159 0.005731367 -0.01555077 0.0074281353
0001c0 5f 30 78 3c 59 6c ae bb a2 6a b6 bb cd 88 76 3b
       0.015148251 -0.0053229746 -0.005566911 0.003761816
0001d0 af 8d c4 bb f7 6a 1c bc ba 25 0b 3a 39 42 98 ba
       -0.0059983353 -0.009546987 0.0005308051 -0.0011616416
0001e0 f0 ca 6e 3c 03 8b 95 bb 89 be 2f bb 17 d2 96 3a
       0.014574751 -0.0045636906 -0.0026816449 0.0011506703
0001f0 36 85 25 3c 70 6c 1c bb 60 86 d3 bb 59 51 41 3c
       0.010102561 -0.0023868345 -0.0064552277 0.01179918

network_body._body_endoder.seq_layers.0.weight f4 [128, 1]
000000 bc bd b3 be 40 df f0 bf 17 dd bd 3c 2f 22 bc bf
       -0.35105693 -1.881813 0.023176713 -1.4697932
000010 22 41 27 3e 6c a6 ba be 94 56 69 3e 12 32 23 bf
       0.1633344 -0.36455095 0.22786933 -0.63748276
000020 2f 39 92 bf 26 b2 9f 3f fd 4a 9f 3f 5a 39 84 bf
       -1.1423701 1.2476242 1.244476 -1.0330002
000030 9c 31 14 3d 90 69 e4 bc b5 cc 93 be 9a ea c3 3e
       0.036180124 -0.027882367 -0.28867117 0.38264924
000040 52 6f 06 be ea cd 12 3f 33 ee bf 3f 02 10 ea 3f
       -0.13128403 0.5734545 1.4994568 1.8286135
000050 40 86 bf bf 0f 37 10 3f 53 dd ac 3f af df 27 c0
       -1.4962845 0.5633401 1.3505043 -2.6230276
000060 30 05 8a 3f db f5 8f bf 2d 55 e6 3d 43 5d f9 bf
       1.0782833 -1.1246904 0.11246715 -1.9481586
000070 b0 c5 6a 3e 1f f9 6f 3e 3a 91 2e 3d ff 8b 5c 3f
       0.22926974 0.23434876 0.042618968 0.8615112
000080 1c c7 06 3f ac f7 af bd 30 34 b1 3d 6a dd 70 3f
       0.52647567 -0.085921615 0.08652532 0.9408785
000090 df 01 06 3f 6c 9d 29 bf 81 45 8c be 7c a6 18 3e
       0.52346605 -0.6625583 -0.27396777 0.14907259
0000a0 45 db 4e 3f 95 61 cd bd 03 df ef ba 91 24 28 bf
       0.8080333 -0.10028378 -0.0018300716 -0.65680796
0000b0 0b 96 f6 3f 82 96 3c 3e e7 26 91 be 2b 59 8e bf
       1.926454 0.18416789 -0.28349993 -1.1120962
0000c0 fb 95 db be b4 73 c1 be 43 2b 03 3f f6 96 c5 3f
       -0.42887864 -0.37783587 0.5123789 1.5436695
0000d0 e3 b0 68 bf 40 71 dc bf 8b 2b 6d 3f 80 58 5a 3e
       -0.9089491 -1.7222061 0.92644566 0.21322823
0000e0 84 62 fd 3d 54 9b 6d bf 52 b6 eb bf 8c c4 8f 3e
       0.12372306 -0.92815137 -1.8415015 0.2807964
0000f0 ec 8e c4 3d f3 e9 2d bc 8c 50 1d be e1 71 fa bf
       0.09597573 -0.01061486 -0.15362757 -1.9566003
000100 5a c3 11 be 9d 31 94 3f 14 3e 7c be 75 21 64 3f
       -0.14234677 1.1577641 -0.24633056 0.8911355
000110 6c 6f d5 3e db e8 aa bf 72 1b 92 bf 05 1f ce 3f
       0.4168657 -1.3352312 -1.1414626 1.6103216
000120 95 4f c8 3f a1 62 e5 be bb 48 07 3f 9f f3 6f 3e
       1.5649287 -0.4480181 0.5284535 0.23432778
000130 47 da eb 3b 7a 08 d2 be cb eb 2c 3f 68 32 e2 3e
       0.0071976515 -0.41022092 0.6754729 0.44179082
000140 1b 14 2d 3f 5a 1b 55 3f b1 19 e5 bf 67 d5 52 3f
       0.67608804 0.8324486 -1.7898465 0.82356876
000150 a2 38 a8 3f ff 22 87 bf ad cb 76 3f 59 b3 f7 be
       1.3142283 -1.0557555 0.96404535 -0.4837902
000160 57 df eb 3e 8e 65 fe bf e9 42 12 3f b1 dd 38 bf
       0.46068832 -1.9874742 0.57133347 -0.72213274
000170 0f b2 6a 3e 43 0b 0c bf f6 29 3c 3f 80 6e 29 be
       0.22919486 -0.54704684 0.7350153 -0.16546059
000180 d2 ac e1 3f 83 79 4f 3f 54 ab 99 3e db 84 cf be
       1.7630866 0.8104479 0.30013525 -0.40531048
000190 df 49 bc be 37 30 19 c0 3a 92 81 bf aa 38 28 40
       -0.3677511 -2.3935678 -1.012275 2.6284585
0001a0 07 f5 35 bf 29 b5 32 c0 d6 40 af 3e 6d 47 b0 be
       -0.7107701 -2.7923071 0.34229153 -0.34429494
0001b0 98 27 98 3f eb 89 82 be eb fa e2 3e 83 99 e0 3e
       1.1887083 -0.25495848 0.4433206 0.4386712
0001c0 35 eb 02 3f b0 86 cb 3e 6a 37 60 3f 69 76 10 bf
       0.5114015 0.39751196 0.87584555 -0.5643068
0001d0 00 37 19 bf 31 a9 5c bf 18 54 29 be 20 43 89 3e
       -0.5984955 -0.86195666 -0.16535985 0.26809025
0001e0 5d f8 31 40 6f 55 8a 3f 70 54 3a 3e 1b 1b a8 bf
       2.780784 1.0807322 0.18196273 -1.3133272
0001f0 aa dd 96 3e d4 b3 66 3f 52 a8 b9 bd cd a8 a6 be
       0.2946599 0.90118146 -0.09065308 -0.3255066

network_body._body_endoder.seq_layers.0.bias f4 [128]
000000 00 00 00 00 00 00 00 00 00 00 00 00 00 00 00 00
       0.0 0.0 0.0 0.0
000010 00 00 00 00 00 00 00 00 00 00 00 00 00 00 00 00
       0.0 0.0 0.0 0.0
000020 00 00 00 00 00 00 00 00 00 00 00 00 00 00 00 00
       0.0 0.0 0.0 0.0
000030 00 00 00 00 00 00 00 00 00 00 00 00 00 00 00 00
       0.0 0.0 0.0 0.0
000040 00 00 00 00 00 00 00 00 00 00 00 00 00 00 00 00
       0.0 0.0 0.0 0.0
000050 00 00 00 00 00 00 00 00 00 00 00 00 00 00 00 00
       0.0 0.0 0.0 0.0
000060 00 00 00 00 00 00 00 00 00 00 00 00 00 00 00 00
       0.0 0.0 0.0 0.0
000070 00 00 00 00 00 00 00 00 00 00 00 00 00 00 00 00
       0.0 0.0 0.0 0.0
000080 00 00 00 00 00 00 00 00 00 00 00 00 00 00 00 00
       0.0 0.0 0.0 0.0
000090 00 00 00 00 00 00 00 00 00 00 00 00 00 00 00 00
       0.0 0.0 0.0 0.0
0000a0 00 00 00 00 00 00 00 00 00 00 00 00 00 00 00 00
       0.0 0.0 0.0 0.0
0000b0 00 00 00 00 00 00 00 00 00 00 00 00 00 00 00 00
       0.0 0.0 0.0 0.0
0000c0 00 00 00 00 00 00 00 00 00 00 00 00 00 00 00 00
       0.0 0.0 0.0 0.0
0000d0 00 00 00 00 00 00 00 00 00 00 00 00 00 00 00 00
       0.0 0.0 0.0 0.0
0000e0 00 00 00 00 00 00 00 00 00 00 00 00 00 00 00 00
       0.0 0.0 0.0 0.0
0000f0 00 00 00 00 00 00 00 00 00 00 00 00 00 00 00 00
       0.0 0.0 0.0 0.0
000100 00 00 00 00 00 00 00 00 00 00 00 00 00 00 00 00
       0.0 0.0 0.0 0.0
000110 00 00 00 00 00 00 00 00 00 00 00 00 00 00 00 00
       0.0 0.0 0.0 0.0
000120 00 00 00 00 00 00 00 00 00 00 00 00 00 00 00 00
       0.0 0.0 0.0 0.0
000130 00 00 00 00 00 00 00 00 00 00 00 00 00 00 00 00
       0.0 0.0 0.0 0.0
000140 00 00 00 00 00 00 00 00 00 00 00 00 00 00 00 00
       0.0 0.0 0.0 0.0
000150 00 00 00 00 00 00 00 00 00 00 00 00 00 00 00 00
       0.0 0.0 0.0 0.0
000160 00 00 00 00 00 00 00 00 00 00 00 00 00 00 00 00
       0.0 0.0 0.0 0.0
000170 00 00 00 00 00 00 00 00 00 00 00 00 00 00 00 00
       0.0 0.0 0.0 0.0
000180 00 00 00 00 00 00 00 00 00 00 00 00 00 00 00 00
       0.0 0.0 0.0 0.0
000190 00 00 00 00 00 00 00 00 00 00 00 00 00 00 00 00
       0.0 0.0 0.0 0.0
0001a0 00 00 00 00 00 00 00 00 00 00 00 00 00 00 00 00
       0.0 0.0 0.0 0.0
0001b0 00 00 00 00 00 00 00 00 00 00 00 00 00 00 00 00
       0.0 0.0 0.0 0.0
0001c0 00 00 00 00 00 00 00 00 00 00 00 00 00 00 00 00
       0.0 0.0 0.0 0.0
0001d0 00 00 00 00 00 00 00 00 00 00 00 00 00 00 00 00
       0.0 0.0 0.0 0.0
0001e0 00 00 00 00 00 00 00 00 00 00 00 00 00 00 00 00
       0.0 0.0 0.0 0.0
0001f0 00 00 00 00 00 00 00 00 00 00 00 00 00 00 00 00
       0.0 0.0 0.0 0.0

network_body._body_endoder.seq_layers.2.weight f4 [128, 128]
000000 e4 78 58 be 2e cc ac bd 22 0f d3 3b a7 60 a7 bc
       -0.21139866 -0.08437382 0.006441013 -0.02043183
000010 3d 76 d6 bc 07 ce 38 be d1 c7 e8 3c 01 93 b3 3d
       -0.026179427 -0.18047343 0.028415592 0.08768273
000020 a8 38 85 bb b8 b2 ff bc 4e 03 bf bd 1d b4 60 3d
       -0.004065592 -0.03121315 -0.09326802 0.05485927
000030 74 5b 0c 3e ef 6a 24 3d 41 7a 81 bd c1 c1 66 3d
       0.13706762 0.040141042 -0.06322146 0.056337122
000040 ea 3a 2b 3d e0 d3 9b 3d 88 4b 01 bd f1 f7 af bd
       0.04180423 0.07608771 -0.031566173 -0.08592213
000050 c0 d4 af bd 92 d4 cb 3d 18 7d 85 3d 41 ee 93 bd
       -0.08585501 0.09952654 0.06518 -0.07223178
000060 ea d7 0c 3d 30 a9 4e bd 2d c2 de 3c 19 69 d6 bd
       0.0343856 -0.05045432 0.0271922 -0.104692645
000070 7d 25 a4 bd 58 54 e0 3d 43 4d 11 3e d4 6b 4b bd
       -0.08014963 0.10953587 0.1418963 -0.04966338
000080 f1 2c 0d 3c 01 1e 98 bd 0d 10 c2 bd 2a c4 6f bc
       0.008616672 -0.07427598 -0.09475718 -0.0146341715
000090 5c ed ed 3b ac 7e 0a be f3 9c 1d bd bb 75 bf 3c
       0.0072609615 -0.13524884 -0.038479757 0.023371568
0000a0 93 73 ad bc b6 84 02 3e a6 42 a0 bd b3 5e bc 3c
       -0.021173274 0.12745938 -0.07825212 0.022994375
0000b0 c2 ff 88 3d ae eb ec 3d ac b1 9c 3d be e5 98 bc
       0.06689407 0.1156839 0.07651076 -0.018664237
0000c0 93 00 43 bd 38 5f 13 bd a9 cb 05 3d 7c ef 18 be
       -0.04760797 -0.03597948 0.03266493 -0.14935106
0000d0 a4 59 48 bc 95 f3 e5 3d a4 ce ba bd 3c 14 0b bd
       -0.012228403 0.112281 -0.09121445 -0.033954844
0000e0 79 af 03 be f6 90 ac 3d 04 03 5c 3c c9 ca 60 bd
       -0.12859906 0.084260866 0.013428453 -0.05488089
0000f0 0c e6 e3 bd 6b be 9b bc 56 2a 8b 3d 02 6f 26 3e
       -0.11127862 -0.019011697 0.06795184 0.16253284
000100 2a 3c 99 3d 60 d9 9e bd 1e 78 89 bd 54 2e 04 be
       0.074821785 -0.07756305 -0.06712364 -0.12908298
000110 bc e3 b0 3d dc 0b 27 be ea e0 42 3d 71 b9 28 bc
       0.08637187 -0.16313118 0.047577776 -0.010298119
000120 fb 83 5b 3c a8 b6 69 bc f5 11 e8 bd b5 ce dd bc
       0.013398166 -0.01426474 -0.1133155 -0.027076105
000130 e1 71 fb bc 25 3f d1 3d 82 0d 60 bd 96 94 94 bd
       -0.03069395 0.10217122 -0.054700382 -0.07254903
000140 bb b9 c1 bd 8d 2f 9d bd 69 07 76 bd 31 c9 58 3c
       -0.094592534 -0.07675085 -0.06006566 0.0132315615
000150 d9 b5 2e 3e b8 dd 68 3d 34 cd 94 3d b3 e9 15 3e
       0.17061557 0.056852072 0.07265702 0.1463993
000160 94 e2 35 bd be ca ea bd f6 94 c6 3d ff d2 ff bd
       -0.044405535 -0.11464451 0.09696381 -0.12491416
000170 34 59 22 3e aa 9e 9a bd 5b 6b 80 3d ec 29 b5 bd
       0.15854341 -0.07549794 0.062704764 -0.088458866
000180 62 70 2f 3e ff 59 83 bd 7a 53 0a bc 2d 74 4e 3d
       0.17132714 -0.0641365 -0.008442754 0.050403763
000190 bb fd f9 bc ad 71 14 3e 2e bd 90 bd b1 1e 2e bc
       -0.030516496 0.14496489 -0.07067333 -0.010627435
0001a0 01 a0 30 3e 39 31 5f 3e d4 07 07 bd 1f 35 a5 bd
       0.17248537 0.2179612 -0.03296645 -0.08066773
0001b0 aa 10 c2 bd 19 40 06 3e 3b 9c 06 3e 71 c4 a1 bd
       -0.09475835 0.13110389 0.13145535 -0.07898796
0001c0 2d 71 a6 bd bb bf f5 bd 65 cd 23 3d 03 c7 3d 3c
       -0.08127055 -0.1199946 0.0399908 0.011583093
0001d0 92 62 15 bb 9c 59 19 3d 8e 47 b1 3c 20 85 76 bc
       -0.0022794348 0.037438974 0.021640565 -0.015046388
0001e0 38 8d 20 be 11 e4 8b bc bd 1a 7b 3d f9 98 3c bb
       -0.1567887 -0.017076524 0.061304796 -0.0028777702
0001f0 81 52 01 bd c8 56 3c bc dc 3b d4 3d 78 13 e3 3d
       -0.031572822 -0.0114953 0.1036298 0.11087698
000200 78 08 26 3e 2c 14 9f bd ed da 7e bc 36 0a 1c bd
       0.16214168 -0.07767519 -0.015555126 -0.038095675
000210 19 17 b8 bb fd 68 07 3d 1e 56 05 3d 97 5e 20 3e
       -0.005617988 0.03305911 0.03255283 0.15661083
000220 44 0b d8 bd 53 2e 5e bd f8 83 c3 bd 06 d0 f7 bb
       -0.10549024 -0.054243397 -0.095466554 -0.00756264
000230 af d0 c9 bd 35 a1 35 bd ff 27 cd 3c 0e d0 c3 bd
       -0.09854256 -0.044343192 0.025043486 -0.09561168
000240 f5 29 c8 3d ef 1e 35 3e 8e cf c4 bd 10 73 90 3d
       0.09773628 0.17687581 -0.096099004 0.070531964
000250 3d 7d 7b 3c 08 86 99 3d b7 f1 d1 3d 96 53 5f 3c
       0.015349683 0.074962676 0.102511816 0.013630768
000260 b2 02 87 bd 2f d7 fb bb 26 c1 96 3d a6 24 df bd
       -0.06592311 -0.007685564 0.07361059 -0.10895662
000270 01 fe 31 bd 82 24 71 bd 4f 36 3a bd 5b 27 98 bc
       -0.043455128 -0.058872707 -0.04546195 -0.018573454
000280 a4 1c fc bd 41 f4 9a bd c3 7a 4a bd be 1a b5 3d
       -0.1231015 -0.07566119 -0.04943348 0.08842991
000290 d2 95 ee 3d 6d 75 25 3a 73 06 40 bc 33 01 21 3d
       0.1164967 0.00063117483 -0.011720288 0.039307784
0002a0 a8 8e 43 3d b0 35 65 bd eb d5 d1 3d c2 cd c1 3c
       0.04774347 -0.055959404 0.1024588 0.023657683
0002b0 fe 3e c1 3d b5 4a 90 3c 2e e7 47 bd 80 66 fa 3d
       0.09435843 0.017613748 -0.048804455 0.122265816
0002c0 22 7c 81 bd e4 52 07 3e 97 ab 52 3d 79 f2 cd bd
       -0.063225046 0.13215214 0.051433172 -0.100560136
0002d0 28 2e 1f be 9f 8e 0b bd ae bb a1 3c 77 df 9c bd
       -0.15544951 -0.03407156 0.019742813 -0.0765981
0002e0 ed d6 02 3e cb 88 74 bd 21 89 a4 3c 50 34 11 3e
       0.127773 -0.05970077 0.02008492 0.14180112
0002f0 4f ae 38 bd 90 17 e6 bc 0e 87 d9 3b 26 ac b2 bc
       -0.04508811 -0.028087407 0.006638414 -0.021810602
000300 bc e9 9c bd 7d 56 76 bd 1b ae ed bd ce 52 2e be
       -0.07661769 -0.060141075 -0.116054736 -0.17023775
000310 c3 66 5e bc 22 9e b6 bd e6 05 0c 3e 28 37 16 3d
       -0.013574305 -0.0891688 0.13674125 0.036673695
000320 c2 67 0a bd 4a 51 ba bd eb bb 06 bd d7 06 10 bd
       -0.033790357 -0.09097536 -0.032894056 -0.035162773
000330 02 31 8e 3d 8a 48 06 3e 07 aa 23 be 15 96 af bd
       0.06942941 0.13113609 -0.15982829 -0.08573548
000340 e6 c3 0e bd af ba d9 3c 40 fe f7 3d a5 2f 5b 3d
       -0.034854792 0.026578275 0.12109041 0.053512234
000350 0e f5 9a bd 57 bc 20 3c e0 28 98 bd 15 30 d7 bd
       -0.07566272 0.009810529 -0.07429671 -0.10507218
000360 12 87 98 bd 28 e2 a7 3d f2 1a 94 3d d2 e0 f7 bd
       -0.074476376 0.08197433 0.07231702 -0.12103428
000370 64 26 c5 3d e8 f1 19 be ca 1b d1 3c 16 f6 87 3c
       0.09626463 -0.15033686 0.025525946 0.016596835
000380 dc 6d 18 bd dd 11 bd 3c 79 24 d1 bd 69 a1 ec bc
       -0.037214145 0.023079807 -0.10212035 -0.02888556
000390 d6 29 a0 bc f3 8d 82 bc 7e bb 2b 3d 1a f2 04 3d
       -0.019551199 -0.015936827 0.041926853 0.03245745
0003a0 1d da 83 bd 11 09 f7 3d 92 fa d1 3b a4 24 90 3d
       -0.06438086 0.12062276 0.006408044 0.07038239
0003b0 16 7f ca ba 8c db a0 3c 47 96 84 bd 29 b6 84 bd
       -0.0015449252 0.019635938 -0.06473976 -0.06480057
0003c0 04 ba 80 bd 2c a4 66 3d 43 12 49 3d 0b 1c 80 3d
       -0.0628548 0.05630891 0.04908968 0.06255349
0003d0 bd 9d 0b 3e 7c 80 28 3e ef f3 a2 3b 78 01 5a 3d
       0.13634391 0.16455263 0.004972927 0.053224057
0003e0 9f 69 fc 3c 3d 0e be bd 15 3f a8 bd cb f8 ba bd
       0.030812083 -0.092800595 -0.08215157 -0.09129485
0003f0 11 c5 98 3d 63 a0 cd 3b 33 15 59 3c eb b4 0a bd
       0.074594624 0.006275223 0.013249683 -0.033863943

network_body._body_endoder.seq_layers.2.bias f4 [128]
000000 00 00 00 00 00 00 00 00 00 00 00 00 00 00 00 00
       0.0 0.0 0.0 0.0
000010 00 00 00 00 00 00 00 00 00 00 00 00 00 00 00 00
       0.0 0.0 0.0 0.0
000020 00 00 00 00 00 00 00 00 00 00 00 00 00 00 00 00
       0.0 0.0 0.0 0.0
000030 00 00 00 00 00 00 00 00 00 00 00 00 00 00 00 00
       0.0 0.0 0.0 0.0
000040 00 00 00 00 00 00 00 00 00 00 00 00 00 00 00 00
       0.0 0.0 0.0 0.0
000050 00 00 00 00 00 00 00 00 00 00 00 00 00 00 00 00
       0.0 0.0 0.0 0.0
000060 00 00 00 00 00 00 00 00 00 00 00 00 00 00 00 00
       0.0 0.0 0.0 0.0
000070 00 00 00 00 00 00 00 00 00 00 00 00 00 00 00 00
       0.0 0.0 0.0 0.0
000080 00 00 00 00 00 00 00 00 00 00 00 00 00 00 00 00
       0.0 0.0 0.0 0.0
000090 00 00 00 00 00 00 00 00 00 00 00 00 00 00 00 00
       0.0 0.0 0.0 0.0
0000a0 00 00 00 00 00 00 00 00 00 00 00 00 00 00 00 00
       0.0 0.0 0.0 0.0
0000b0 00 00 00 00 00 00 00 00 00 00 00 00 00 00 00 00
       0.0 0.0 0.0 0.0
0000c0 00 00 00 00 00 00 00 00 00 00 00 00 00 00 00 00
       0.0 0.0 0.0 0.0
0000d0 00 00 00 00 00 00 00 00 00 00 00 00 00 00 00 00
       0.0 0.0 0.0 0.0
0000e0 00 00 00 00 00 00 00 00 00 00 00 00 00 00 00 00
       0.0 0.0 0.0 0.0
0000f0 00 00 00 00 00 00 00 00 00 00 00 00 00 00 00 00
       0.0 0.0 0.0 0.0
000100 00 00 00 00 00 00 00 00 00 00 00 00 00 00 00 00
       0.0 0.0 0.0 0.0
000110 00 00 00 00 00 00 00 00 00 00 00 00 00 00 00 00
       0.0 0.0 0.0 0.0
000120 00 00 00 00 00 00 00 00 00 00 00 00 00 00 00 00
       0.0 0.0 0.0 0.0
000130 00 00 00 00 00 00 00 00 00 00 00 00 00 00 00 00
       0.0 0.0 0.0 0.0
000140 00 00 00 00 00 00 00 00 00 00 00 00 00 00 00 00
       0.0 0.0 0.0 0.0
000150 00 00 00 00 00 00 00 00 00 00 00 00 00 00 00 00
       0.0 0.0 0.0 0.0
000160 00 00 00 00 00 00 00 00 00 00 00 00 00 00 00 00
       0.0 0.0 0.0 0.0
000170 00 00 00 00 00 00 00 00 00 00 00 00 00 00 00 00
       0.0 0.0 0.0 0.0
000180 00 00 00 00 00 00 00 00 00 00 00 00 00 00 00 00
       0.0 0.0 0.0 0.0
000190 00 00 00 00 00 00 00 00 00 00 00 00 00 00 00 00
       0.0 0.0 0.0 0.0
0001a0 00 00 00 00 00 00 00 00 00 00 00 00 00 00 00 00
       0.0 0.0 0.0 0.0
0001b0 00 00 00 00 00 00 00 00 00 00 00 00 00 00 00 00
       0.0 0.0 0.0 0.0
0001c0 00 00 00 00 00 00 00 00 00 00 00 00 00 00 00 00
       0.0 0.0 0.0 0.0
0001d0 00 00 00 00 00 00 00 00 00 00 00 00 00 00 00 00
       0.0 0.0 0.0 0.0
0001e0 00 00 00 00 00 00 00 00 00 00 00 00 00 00 00 00
       0.0 0.0 0.0 0.0
0001f0 00 00 00 00 00 00 00 00 00 00 00 00 00 00 00 00
       0.0 0.0 0.0 0.0

value_heads.value_heads.extrinsic.weight f4 [1, 128]
000000 1e e9 58 3e 6c 64 8f bd 6d 98 1d be 69 9d cd bd
       0.21182677 -0.07001576 -0.15390177 -0.10039789
000010 c8 89 2a 3d 58 7d a2 bd a8 21 cc bc 60 b0 55 3d
       0.041635305 -0.07934064 -0.024918392 0.052170157
000020 28 f8 90 bd e0 5a 66 3d be 66 06 3e 16 0c 33 3e
       -0.07078582 0.05623901 0.1312513 0.17485079
000030 c4 cc 3c be 20 a9 25 bd 04 86 f2 3d 98 24 b3 3d
       -0.18437487 -0.040444493 0.11841968 0.08747214
000040 f0 ec 7a 3c 26 d6 e4 bd 40 5e 6a 3c c8 46 0c be
       0.015315279 -0.11173658 0.0143046975 -0.13698876
000050 9a e1 2c 3e 81 ef 42 be d4 28 0f bd 73 df 16 be
       0.16882935 -0.19036676 -0.034951046 -0.14733677
000060 d8 6d 39 3d db cf 27 be de 5f 0c 3e 06 f5 37 3e
       0.04527077 -0.16387884 0.13708445 0.17964563
000070 69 97 3c be e8 11 bb 3d 58 7b 3a 3d b8 06 26 be
       -0.18417133 0.09134275 0.045527786 -0.162135
000080 30 69 34 3c 20 11 86 bd b8 54 8c 3d f8 ab 7d 3d
       0.011011407 -0.06546235 0.06852096 0.06193158
000090 32 96 cb bd 18 eb 4e 3e 80 57 62 bc 12 2f 28 3e
       -0.09940757 0.20206869 -0.013814807 0.16424206
0000a0 a0 2c 82 bd 0e b2 d6 bd 00 ff 06 3e 48 7f bc 3d
       -0.06356168 -0.1048318 0.13183212 0.092039645
0000b0 68 19 d5 bc 60 73 a8 bd 28 3e 47 3d 53 b2 14 be
       -0.026013091 -0.08225131 0.04864326 -0.1452115
0000c0 8f 0e f3 bd 05 42 c8 bd a4 b1 95 bd a2 95 1a be
       -0.11868011 -0.09778217 -0.07309273 -0.15096143
0000d0 b0 50 f4 3d 04 89 35 be da ab a3 bd 94 61 99 bd
       0.119294524 -0.17728049 -0.079917625 -0.07489315
0000e0 d4 8f c6 3d 60 f2 2e 3c 7c cb 9d 3d 8c 98 c7 3d
       0.09695402 0.010677904 0.07704827 0.09745893
0000f0 04 ca 18 be 79 88 21 be a0 c1 dd 3b 2c db 9b 3d
       -0.14920813 -0.15774716 0.0067674667 0.07610163
000100 04 85 00 3e b0 3b 58 3d 0a 7c 58 3e 24 da 2a be
       0.12550741 0.052791297 0.21141067 -0.16684777
000110 18 01 15 be 3a 18 5a be 00 a5 a7 3b b4 b9 44 3e
       -0.14551198 -0.21298304 0.005116105 0.19211465
000120 f1 4d 40 be 16 06 df bd 90 b3 e6 3d 18 ec 1f 3d
       -0.18779732 -0.10889833 0.112647176 0.039043516
000130 9c 64 0b bd 2a 67 c6 bd b4 0f 18 be 50 39 7a 3d
       -0.034031495 -0.09687646 -0.1484974 0.061089814
000140 74 ba c7 3d 40 80 f9 3c 88 89 86 bd f2 97 09 3e
       0.0975236 0.030456662 -0.06569201 0.13436869
000150 5c 3d 37 be e6 4a 96 bd 60 9e 06 bc ac 90 39 be
       -0.178945 -0.073385045 -0.0082164705 -0.18121594
000160 56 7d 1f be 5a dc 15 3e 12 c8 05 3e a0 26 83 bd
       -0.15575156 0.14634839 0.13064602 -0.064038515
000170 0f 0d 3f be a4 38 06 3d 28 9a 1a 3e 64 1e a0 3d
       -0.18657325 0.03276886 0.15097868 0.078182966
000180 88 6a ad 3c f0 3f 1a 3e e0 1b 9c 3b 51 d0 5b be
       0.021168962 0.15063453 0.004764065 -0.21466185
000190 78 65 19 be 64 9f f3 bd e0 9e 4f 3e a0 8f b4 bd
       -0.14980114 -0.11895636 0.2027545 -0.08816457
0001a0 5c 74 ec bd 9e 66 10 3e 14 0d f1 3d 87 22 2a be
       -0.11545631 0.14101645 0.117700726 -0.16614734
0001b0 92 99 4c 3e ef 3d 28 be 20 b8 b6 3d 18 52 dd 3d
       0.19980457 -0.16429876 0.08921838 0.10806674
0001c0 de b3 f5 bd 80 b0 f2 bc d8 45 dd 3c fa 96 b3 bd
       -0.119971976 -0.029625177 0.027010843 -0.08769031
0001d0 de 94 17 3e 6e 54 d9 bd 4a 9d 1c be 7c 77 2f 3e
       0.14802882 -0.10611807 -0.15294376 0.17135423
0001e0 a6 0c ab bd 20 1b 87 3d 34 a2 37 bd 54 b4 16 3e
       -0.08352022 0.065969706 -0.044832423 0.14717227
0001f0 28 8c c8 bd 80 9e 59 3c f8 ed 4c 3e a8 9f 8c 3c
       -0.09792358 0.013282418 0.20012653 0.017165974
