MachineLearningDev/results/ppo/MoveToGoal/MoveToGoal-3200.onnx (onnx, 72102 bytes, 4 tensors)

network_body._body_endoder.seq_layers.0.weight f4 [128, 1]
000000 80 18 75 3f 45 44 c3 3f 42 ab ac 3f 71 d6 bc 3c
       0.9574051 1.5255209 1.3489764 0.023051472
000010 df 1d 75 bf 78 70 e8 bf e3 ac 65 3f 21 85 e1 3f
       -0.95748705 -1.8159323 0.8971693 1.7618753
000020 f2 7f 65 bf b3 3e e1 bd 51 2b 77 bf 5e 16 50 be
       -0.89648354 -0.10998287 -0.9655047 -0.20321032
000030 c8 47 be 3d 3f 39 b0 3d b2 5d 8a 3f f4 21 b7 be
       0.09291035 0.08604669 1.0809844 -0.35768092
000040 47 13 65 3f 2e 35 2b 3f 45 fb e9 3f fa 00 28 3f
       0.8948254 0.6687802 1.8279806 0.6562649
000050 9b cb ee 3c 09 77 b6 bf bb f5 04 bd e8 2c d7 be
       0.029149821 -1.4255077 -0.03246091 -0.42026448
000060 c7 37 ac 3f 26 55 25 be 6a 00 05 3f 3e 48 49 3f
       1.3454522 -0.16145763 0.51953757 0.7862586
000070 5e 7e ac bf 90 18 2b 3e a6 b8 0a 3f f2 04 f5 3e
       -1.3476064 0.16708589 0.54188 0.47855335
000080 a3 d6 d4 3f 6a 31 ec 3f 85 42 7e bf 63 02 9f 3e
       1.6628002 1.845258 -0.9932025 0.31056508
000090 c8 1c ab bd e8 ad 8e bd 43 37 c5 3e e1 98 37 3e
       -0.08355099 -0.06966764 0.38518724 0.17929412
0000a0 3e 1a 3c bc b7 13 6a be 36 b2 2d bf a1 90 ab bf
       -0.011480866 -0.22859083 -0.67850053 -1.3403512
0000b0 8a d2 9e 3e 1c 21 b1 3d 27 f4 a4 bf 0b e5 ef 3f
       0.31020004 0.08648893 -1.2887009 1.8741773
0000c0 a1 85 8f 3f 60 cf aa 3f a6 99 1f bf 85 eb 7f 3f
       1.1212655 1.3344536 -0.62343824 0.9996875
0000d0 3d 16 4e 3f 8b 39 6a bf 65 54 8e be 13 b8 14 3e
       0.8050268 -0.91494054 -0.27798763 0.14523344
0000e0 99 ce 83 be 88 95 af bf ed 42 38 3f b4 ee 6a be
       -0.2574356 -1.3717508 0.7197712 -0.2294262
0000f0 67 38 24 3f 84 86 11 3f c7 db a0 3f d2 d4 96 be
       0.64148563 0.5684588 1.2567071 -0.29459244
000100 d5 9c 55 bf 7e f9 c0 3e 3f 5d 83 bf 96 be eb bd
       -0.8344243 0.37690347 -1.0262831 -0.11510961
000110 db 7c 46 bf 41 82 d5 3e 70 3a 73 bf 04 c8 12 3f
       -0.77534264 0.41700938 -0.95011044 0.5733645
000120 3e b8 80 bf 46 5d 9f bf e4 9d 73 3e 75 04 5f be
       -1.0056226 -1.245034 0.23790699 -0.21779044
000130 40 73 25 bf 14 4f 8e 3f 47 5f e1 bf 45 57 a6 3f
       -0.6462898 1.1117883 -1.7607201 1.2995383
000140 2e 78 4e be 59 fc 98 3e d8 7a 30 bf 0c e0 35 3f
       -0.20163032 0.29880026 -0.68937445 0.71044993
000150 ab a9 6d be 58 47 2c 3f 9d e4 bc be 79 54 83 3f
       -0.23209254 0.6729636 -0.36893168 1.0260154
000160 47 f4 fe be c9 5f c9 bf b2 a3 94 3f c8 4c ea 3e
       -0.49795744 -1.5732356 1.1612456 0.45761704
000170 6a fd 37 3e fe 71 c5 be d8 41 29 40 44 3e 85 bf
       0.17967764 -0.38563532 2.6446438 -1.0409627
000180 9e fb 3d bf 1d 2b ac bf 06 68 c6 3f 2c ee f5 3e
       -0.7421206 -1.3450657 1.5500495 0.48033273
000190 59 8a 47 3f d4 fe 9a 3f 8d 5c 16 3f 3e 9f 7c 3f
       0.77945477 1.2109017 0.5873497 0.98680484
0001a0 cb 4c ba 3e 93 bf b5 be f2 c7 8b 3e 99 15 ab 3f
       0.36386713 -0.35497722 0.27300984 1.3365966
0001b0 b4 86 28 3e 45 5a 63 3e 2a 74 88 bf 2e d4 be 3f
       0.16457635 0.22202404 -1.066045 1.4908502
0001c0 94 9a 42 be 27 ca ee 3f df e1 3e be e3 49 92 3e
       -0.1900428 1.8655442 -0.1864085 0.28571996
0001d0 f6 c8 e7 be e4 29 08 c0 65 cc 30 be 11 2c 33 3f
       -0.4527051 -2.1275568 -0.1726547 0.69989115
0001e0 ac 38 12 40 4d 1a 5c be d4 7e d6 3d 13 77 91 bf
       2.284709 -0.21494408 0.10473409 -1.1364464
0001f0 63 2b 0e 3f a8 8f 54 bf 7a 1a 40 3d 61 dc 45 bf
       0.5553495 -0.830317 0.04690025 -0.77289397

network_body._body_endoder.seq_layers.0.bias f4 [128]
000000 00 00 00 00 00 00 00 00 00 00 00 00 00 00 00 00
       0.0 0.0 0.0 0.0
000010 00 00 00 00 00 00 00 00 00 00 00 00 00 00 00 00
       0.0 0.0 0.0 0.0
000020 00 00 00 00 00 00 00 00 00 00 00 00 00 00 00 00
       0.0 0.0 0.0 0.0
000030 00 00 00 00 00 00 00 00 00 00 00 00 00 00 00 00
       0.0 0.0 0.0 0.0
000040 00 00 00 00 00 00 00 00 00 00 00 00 00 00 00 00
       0.0 0.0 0.0 0.0
000050 00 00 00 00 00 00 00 00 00 00 00 00 00 00 00 00
       0.0 0.0 0.0 0.0
000060 00 00 00 00 00 00 00 00 00 00 00 00 00 00 00 00
       0.0 0.0 0.0 0.0
000070 00 00 00 00 00 00 00 00 00 00 00 00 00 00 00 00
       0.0 0.0 0.0 0.0
000080 00 00 00 00 00 00 00 00 00 00 00 00 00 00 00 00
       0.0 0.0 0.0 0.0
000090 00 00 00 00 00 00 00 00 00 00 00 00 00 00 00 00
       0.0 0.0 0.0 0.0
0000a0 00 00 00 00 00 00 00 00 00 00 00 00 00 00 00 00
       0.0 0.0 0.0 0.0
0000b0 00 00 00 00 00 00 00 00 00 00 00 00 00 00 00 00
       0.0 0.0 0.0 0.0
0000c0 00 00 00 00 00 00 00 00 00 00 00 00 00 00 00 00
       0.0 0.0 0.0 0.0
0000d0 00 00 00 00 00 00 00 00 00 00 00 00 00 00 00 00
       0.0 0.0 0.0 0.0
0000e0 00 00 00 00 00 00 00 00 00 00 00 00 00 00 00 00
       0.0 0.0 0.0 0.0
0000f0 00 00 00 00 00 00 00 00 00 00 00 00 00 00 00 00
       0.0 0.0 0.0 0.0
000100 00 00 00 00 00 00 00 00 00 00 00 00 00 00 00 00
       0.0 0.0 0.0 0.0
000110 00 00 00 00 00 00 00 00 00 00 00 00 00 00 00 00
       0.0 0.0 0.0 0.0
000120 00 00 00 00 00 00 00 00 00 00 00 00 00 00 00 00
       0.0 0.0 0.0 0.0
000130 00 00 00 00 00 00 00 00 00 00 00 00 00 00 00 00
       0.0 0.0 0.0 0.0
000140 00 00 00 00 00 00 00 00 00 00 00 00 00 00 00 00
       0.0 0.0 0.0 0.0
000150 00 00 00 00 00 00 00 00 00 00 00 00 00 00 00 00
       0.0 0.0 0.0 0.0
000160 00 00 00 00 00 00 00 00 00 00 00 00 00 00 00 00
       0.0 0.0 0.0 0.0
000170 00 00 00 00 00 00 00 00 00 00 00 00 00 00 00 00
       0.0 0.0 0.0 0.0
000180 00 00 00 00 00 00 00 00 00 00 00 00 00 00 00 00
       0.0 0.0 0.0 0.0
000190 00 00 00 00 00 00 00 00 00 00 00 00 00 00 00 00
       0.0 0.0 0.0 0.0
0001a0 00 00 00 00 00 00 00 00 00 00 00 00 00 00 00 00
       0.0 0.0 0.0 0.0
0001b0 00 00 00 00 00 00 00 00 00 00 00 00 00 00 00 00
       0.0 0.0 0.0 0.0
0001c0 00 00 00 00 00 00 00 00 00 00 00 00 00 00 00 00
       0.0 0.0 0.0 0.0
0001d0 00 00 00 00 00 00 00 00 00 00 00 00 00 00 00 00
       0.0 0.0 0.0 0.0
0001e0 00 00 00 00 00 00 00 00 00 00 00 00 00 00 00 00
       0.0 0.0 0.0 0.0
0001f0 00 00 00 00 00 00 00 00 00 00 00 00 00 00 00 00
       0.0 0.0 0.0 0.0

network_body._body_endoder.seq_layers.2.weight f4 [128, 128]
000000 8e bf bd bd 68 d8 96 bd ef 63 e3 3c 0a 0b 24 bd
       -0.09265052 -0.07365495 0.027757613 -0.04004959
000010 83 4b 83 3d 59 e4 02 3d 17 ce 1a be 8a 73 da 3c
       0.06410887 0.03195605 -0.1511768 0.026666421
000020 b2 6a 10 bd e3 a3 d3 3d 79 c5 13 3d 87 06 81 bd
       -0.035258003 0.10333993 0.036076996 -0.06300073
000030 5e 22 a9 bd ab 3f b4 3d fb 3d d6 bc 4e bc 13 3d
       -0.08258508 0.08801206 -0.026152601 0.036068253
000040 15 68 f2 bd cb ce d3 bc 39 5f f3 bd 23 8a d4 bd
       -0.11836258 -0.025855443 -0.11883397 -0.1037791
000050 19 69 49 3d df 32 8b 3d 61 8e a6 3c 91 fb 2d bd
       0.049172495 0.06796812 0.020331563 -0.04247624
000060 42 26 46 be cf e3 26 3b 4d 5c 50 be 02 8f 61 3d
       -0.19350532 0.0025465374 -0.2034771 0.055068024
000070 ca 01 c8 bc 37 09 de bd 8a a7 89 3d 01 55 0f 3d
       -0.024414916 -0.10841601 0.06721409 0.034993175
000080 99 63 0e be 19 2d 3e 3e 1d ce d1 bc 60 0d 76 3d
       -0.13905181 0.18571891 -0.025610978 0.06007135
000090 c2 14 1d 3d 24 6e c0 bd f1 bb 39 bd 55 60 00 3c
       0.038349874 -0.09396008 -0.04534525 0.007835467
0000a0 44 d9 2f 3d 80 b4 bc bd af 71 6c bd fd 61 97 bd
       0.04293181 -0.09214115 -0.057725605 -0.07391737
0000b0 bd 29 98 bc 7a 8b 3a bb 45 90 ad bc 65 8e 8c 3d
       -0.01857459 -0.0028464482 -0.021186957 0.06863097
0000c0 ce 20 8e bb 87 3d 0b be 81 3a 8b 3c 00 23 83 bd
       -0.0043374067 -0.1359769 0.01699567 -0.0640316
0000d0 25 ec 5c 3e 97 f8 c8 3c 19 9e ec 3d d4 9c 81 3d
       0.21574457 0.0245326 0.11553592 0.06328741
0000e0 08 89 ae bd 2c cd 8a bd bb da 42 3d 29 ca 64 3d
       -0.085222304 -0.06777415 0.04757188 0.055856857
0000f0 15 fd df bd 3d a7 77 bd 55 3e a0 3d 47 6d fb 3d
       -0.109369434 -0.060462225 0.07824389 0.122767024
000100 df a6 dd bc 32 61 1b 3e 70 e0 fe 3c 47 51 af bc
       -0.02705711 0.15173796 0.03111288 -0.02140106
000110 1c ed 6a be 1c e8 ae bd 06 5f ac bd fb f6 e8 3d
       -0.22942013 -0.08540365 -0.08416562 0.11375233
000120 c2 29 85 bd 9f 11 76 3d cc bb ca bd 98 93 ea bd
       -0.06502105 0.0600754 -0.09899101 -0.114539325
000130 74 ba c6 bb b1 86 84 3d 87 8a fd bb 2b e2 ca bd
       -0.0060647074 0.06471003 -0.007737461 -0.09906419
000140 bb cd 4c bd 5b 81 49 3c 0c 08 a9 bd 65 da 19 be
       -0.050000887 0.012298907 -0.08253488 -0.15024717
000150 15 d0 19 3e 4e 01 fd 3d 19 f2 22 bd 61 94 98 3d
       0.15020783 0.123537645 -0.039781664 0.07450176
000160 7b 92 37 3d 93 c6 5f bd 30 b0 9a 3b 6d 4c 0c 3d
       0.04481743 -0.054632735 0.00472071 0.034252573
000170 cd f2 45 3b 73 1c 58 be 95 0a 57 3c ba a8 f1 3a
       0.0030204535 -0.21104603 0.013125082 0.0018437125
000180 db 6f 1f 3d a2 7e 17 be 35 5c bd bb 1d 47 a1 3d
       0.038925033 -0.147944 -0.005778814 0.07874892
000190 b2 56 91 3d 7d 5a a7 bd 3d 65 89 bd 37 dc 2a 3d
       0.07096614 -0.08171556 -0.06708763 0.04171392
0001a0 f5 44 c7 bd bb d4 ed bc 9d 7e bf bc 5d fe af 3b
       -0.097299494 -0.029032102 -0.023375804 0.0053708986
0001b0 97 21 55 bd 8c 75 ac 3d d7 90 7f 3a 88 38 9e bd
       -0.052033987 0.08420858 0.0009749061 -0.07725626
0001c0 51 7b a2 bd 44 c1 2f 3b df 54 d6 3c 94 f0 63 3a
       -0.07933677 0.0026818076 0.026163517 0.0008695212
0001d0 a2 28 3c 3d 5b 02 3a bd 11 aa 85 3e c0 6a 99 3d
       0.045937188 -0.045412403 0.26106313 0.07491064
0001e0 4f 70 00 3e 67 ce 9b 3c 58 ec 0d 3e 67 7e ce 3d
       0.12542842 0.019019319 0.13859689 0.10082703
0001f0 55 1f 6f 3d 4d 84 12 3e 84 8e 01 3e 24 90 cd bc
       0.05837949 0.14308281 0.12652022 -0.025093146
000200 e9 e3 38 bd 9b 8f a6 3d d1 56 8a 3c 5d 78 06 3e
       -0.045139227 0.08132859 0.0168871 0.13131852
000210 02 2e 22 3d 40 04 c2 3d a6 56 37 bc 25 02 0f 3e
       0.039594658 0.09473467 -0.011190092 0.13965662
000220 0c 5e 75 bd cc 0a 95 bc 5d ba 00 3d 21 86 c3 3e
       -0.059904143 -0.018193625 0.03142773 0.3818827
000230 ef 99 ee bd cf c5 50 be cb d3 f2 3d 99 c7 25 3e
       -0.11650454 -0.20387958 0.118568026 0.16189422
000240 4a d5 02 3d 35 96 1c 3d e5 c2 af 3d 8b d9 0a be
       0.03194169 0.038229186 0.08582095 -0.13559549
000250 e3 6a b5 bc 86 74 f6 bd 19 a1 81 3d ce bc fa 3b
       -0.022145694 -0.12033944 0.06329555 0.007651902
000260 88 29 3d 3c 1a e4 08 3e d1 a7 d2 3c f0 2b 93 bd
       0.011545546 0.13368264 0.025714787 -0.07186115
000270 72 31 9d bc 28 87 c5 bd ca c7 93 3d 4d e2 b0 bd
       -0.019188616 -0.0964492 0.07215841 -0.086369134
000280 42 df 1c 3e 63 42 15 3e e4 69 9c 3c 29 49 bc bd
       0.15319541 0.14576106 0.019093461 -0.09193642
000290 22 24 5f bc d4 0b e1 bd 1c 5b a4 bb df ca 5b 3d
       -0.013619455 -0.10988584 -0.005015744 0.05366027
0002a0 3e a3 49 3d 87 f0 15 bb 2c b9 82 bd ac fd 28 bb
       0.049227946 -0.0022878961 -0.06382975 -0.0025785966
0002b0 1e 97 54 39 44 3c 27 be ce b0 dd 3b 89 03 23 bd
       0.00020274191 -0.16331583 0.0067654615 -0.039798293
0002c0 43 a0 92 3c dd 34 36 3d db de 3b bd bc ab f7 bb
       0.017898684 0.044484008 -0.04586683 -0.007558314
0002d0 21 6e 62 bb cf ad 37 bd ec f2 d3 3d ae 5a b0 3b
       -0.0034550505 -0.04484349 0.10349068 0.0053819036
0002e0 db 7a ba bd ac 9a 42 3e 37 db 72 3b 2d d5 4c bd
       -0.09105464 0.19004315 0.0037056932 -0.050007988
0002f0 77 b3 00 3d 36 af 46 3d 94 2a 3e be b1 75 23 be
       0.03142115 0.048506938 -0.1857093 -0.15962864
000300 a2 d4 d7 3d 9a 84 1e 3d 47 58 5b 3d ae d9 17 3e
       0.10538603 0.038700677 0.053550985 0.14829132
000310 97 37 23 bd 16 53 08 3e 60 a5 75 3d 41 03 b4 3d
       -0.039847936 0.13312945 0.059972167 0.08789683
000320 db 8f 59 3d b5 00 cb 3d ca 0b 35 3d f3 f8 5e 3d
       0.053115707 0.09912244 0.044200696 0.054436635
000330 f4 e8 5b 3c 8a a0 99 bd d7 8e 24 be 6f 32 c6 bd
       0.01342224 -0.075013235 -0.16070114 -0.09677588
000340 21 3d 6f be cd 13 65 3b cb be e9 3c 93 35 cb 3d
       -0.23363163 0.003495443 0.02853336 0.09922328
000350 c4 01 05 3d e8 55 01 3d c2 5b 1e 3c 0c aa 61 3d
       0.032472387 0.031576067 0.009665431 0.05509381
000360 34 e8 37 3d e5 a0 24 3d d6 31 a0 3d 47 48 5a 3d
       0.04489918 0.040192503 0.078220055 0.053291585
000370 c4 a4 f2 bb ff d5 46 bd 69 7e 55 3d 3d c7 24 be
       -0.0074048955 -0.048543926 0.052122507 -0.16091628
000380 d7 e8 68 be f5 d1 3d 3e 92 29 81 3d 9c 67 e0 bd
       -0.22745071 0.18537124 0.06306757 -0.10957262
000390 e3 55 97 bd bf 1e d8 bd 9a f8 30 3d 9e 44 3a bc
       -0.073894285 -0.10552739 0.043205835 -0.011368899
0003a0 6a 5d 73 3d 57 5d 6c 3c 83 b1 e0 bd 75 df b8 3c
       0.05941526 0.014426551 -0.10971358 0.02256749
0003b0 89 5e 22 be 13 4e 99 bd 4a 2d ba bd 6f 30 69 bd
       -0.15856375 -0.074855946 -0.090906695 -0.056930955
0003c0 52 55 97 bd 85 bd 9d bd 35 3d 8c 3b e6 4d bb 3d
       -0.073893204 -0.077021636 0.0042797574 0.09145717
0003d0 fa fc ee bc 7f bb 6b bc ed 91 ce 3c 87 05 20 3e
       -0.029173363 -0.014387964 0.025216067 0.15627109
0003e0 85 eb c4 3d 0b 23 eb bd d1 e5 33 3c b1 16 7d 3d
       0.09615234 -0.11481293 0.0109800855 0.06178922
0003f0 89 4a 51 3e b8 e3 1c 3c aa 7f 45 3d b3 75 87 bd
       0.20438589 0.009575777 0.048217453 -0.06614246

action_model._discrete_distribution.branches.0.weight f4 [1, 128]
000000 a0 df 40 3c e1 6e 2c bb 0f d4 e1 3b 1f 33 a7 bb
       0.011772066 -0.0026311206 0.0068917344 -0.0051025297
000010 09 07 8a 3c 7b d3 fb 3b a1 b0 0e ba 68 42 57 bb
       0.016849058 0.0076851225 -0.000544319 -0.0032845978
000020 97 89 e1 bb 72 37 3b 3c b3 53 33 3c 92 f6 4a ba
       -0.006882857 0.011426793 0.010945248 -0.00077424303
000030 54 ac 9d 3b 80 6e db bb ab 61 a9 3b 9a 52 1d 3b
       0.004811803 -0.0066965222 0.0051691136 0.0024005533
000040 37 5d 0e bc 2b 48 d4 3b ec 3f 08 3c 59 fb 38 bc
       -0.008689216 0.0064783297 0.008316021 -0.011290395
000050 f8 13 5c bc 8a e8 e6 ba 7d 07 ee bb 04 cd a7 ba
       -0.013432495 -0.001761691 -0.0072640763 -0.0012802188
000060 df c2 46 b9 c3 99 91 3c 1a 3e 5c 3c 37 61 49 39
       -0.00018955347 0.017773515 0.013442541 0.00019205069
000070 91 f9 14 3c cb d9 d2 b9 3d c4 fe bb 68 7b 06 bb
       0.009092704 -0.0004021659 -0.0077748583 -0.0020520333
000080 23 23 6c bc e4 fc aa bb ad 78 80 bc cb 50 4b bb
       -0.014412674 -0.005218135 -0.015682543 -0.0031023498
000090 5d d4 8b bb 51 f9 1f 3b 12 a5 95 bb a5 1a 37 bc
       -0.004267259 0.0024410079 -0.004566797 -0.011175786
0000a0 6f 77 02 3c 0d 24 51 3c f5 39 25 3c d1 07 0b 3b
       0.0079630455 0.012764943 0.010084619 0.0021214376
0000b0 6c 7d c4 3b 4b 12 a7 bb 02 9a 32 3c ca 92 66 bc
       0.0059963968 -0.0050986162 0.010900976 -0.014073083
0000c0 93 17 a8 ba 3f fa ea bb ba 6e 80 3b 02 72 b2 3b
       -0.0012824408 -0.007170945 0.0039194496 0.0054457197
0000d0 e1 c3 c7 bb b6 d3 91 3c 27 65 78 bc 1b aa 30 bc
       -0.0060963486 0.017801147 -0.015160835 -0.010782744
0000e0 2e 39 2f ba 00 d4 6e bc fe 73 41 3c b0 3e 96 3b
       -0.00066842407 -0.014576912 0.01180744 0.0045851097
0000f0 22 ce 24 bb dd 42 bc bb 6c ce 33 bc f2 49 28 3b
       -0.0025147279 -0.0057452754 -0.010974508 0.002567884
000100 95 b6 a7 bc 7c ad 29 bc 5b 68 41 bc 0b 58 91 3c
       -0.020472804 -0.010356303 -0.011804665 0.017742177
000110 9f d9 97 3b cb ff 16 3c 2b ea e6 bb 84 50 93 ba
       0.0046340968 0.009216259 -0.007046958 -0.0011239205
000120 44 99 0e bc d7 67 f1 3b 6f bd 05 3c 23 b1 a5 3a
       -0.008703534 0.007367115 0.00816284 0.0012641292
000130 63 45 a3 3b a5 68 9a 3b d3 54 19 3c 18 99 63 bb
       0.004982637 0.0047121816 0.009358603 -0.0034728702
000140 a3 a4 84 bb f6 5e 35 3b c4 14 2c 3b c4 6b 9b bb
       -0.0040479465 0.002767501 0.0026257494 -0.0047430713
000150 32 b3 77 ba 34 68 1e 3c 8a 9f 13 3b 57 c6 88 bc
       -0.00094490044 0.009668399 0.0022525513 -0.016696138
000160 da 66 54 3a 77 60 29 bc fd a0 7f 3b 77 05 96 3b
       0.0008102484 -0.01033794 0.0039005869 0.004578288
000170 8d 3a c7 3c 65 7a 5f 3b 35 bb 00 3b cf 7b ae bb
       0.024319911 0.0034100052 0.0019642834 -0.0053248177
000180 d7 48 10 3c 94 4d 85 3a f1 f8 07 3c c8 00 e9 39
       0.008806429 0.0010170215 0.008299098 0.00044441805
000190 ef 8a 0a 3c f4 25 3c 3b 2b b1 09 3c 35 4f 44 bc
       0.008455976 0.0028709145 0.008404057 -0.011981775
0001a0 75 58 b9 39 5b 00 e8 bb b8 2e 8f 3b 8c d3 c0 3b
       0.00035351855 -0.0070801205 0.004369583 0.0058845934
0001b0 2c 5a 21 3c 31 ce bb 3b a8 c8 7e bc b7 67 f3 3b
       0.009848159 0.005731367 -0.01555077 0.0074281353
0001c0 5f 30 78 3c 59 6c ae bb a2 6a b6 bb cd 88 76 3b
       0.015148251 -0.0053229746 -0.005566911 0.003761816
0001d0 af 8d c4 bb f7 6a 1c bc ba 25 0b 3a 39 42 98 ba
       -0.0059983353 -0.009546987 0.0005308051 -0.0011616416
0001e0 f0 ca 6e 3c 03 8b 95 bb 89 be 2f bb 17 d2 96 3a
       0.014574751 -0.0045636906 -0.0026816449 0.0011506703
0001f0 36 85 25 3c 70 6c 1c bb 60 86 d3 bb 59 51 41 3c
       0.010102561 -0.0023868345 -0.0064552277 0.01179918
