MachineLearningDev/results/MoveToGoal/MoveToGoal.onnx (onnx, 75098 bytes, 7 tensors)

network_body._body_endoder.seq_layers.0.weight f4 [128, 6]
0	0xbd7b9d3a	-0.06142924
1	0x3f22d652	0.63608277
2	0xbf3eef3a	-0.7458378
3	0xbcea9887	-0.028637184
4	0xbd84c357	-0.064825706
5	0xbdc3b53a	-0.095560506
6	0x3f29df34	0.66356206
7	0xbe0ff6e7	-0.1405903
8	0x3b85826a	0.0040743845
9	0x3eb788e8	0.3584664
10	0xbe8f8597	-0.28031608
11	0x3f03e3fd	0.5151976
12	0x3e7004d8	0.23439348
13	0xbec1fcce	-0.37888187
14	0x3f3561c5	0.7085231
15	0x3e8cb044	0.2747823
16	0x3e4ee537	0.20204626
17	0xbd054173	-0.03253312
18	0x3f45cca6	0.77265394
19	0xbecb2cd3	-0.39682636
20	0xbcc7ab4b	-0.024373671
21	0x3f725af7	0.9467005
22	0x3bcf840a	0.006332879
23	0x3f2fb4af	0.68635076
24	0x3e548af2	0.20756128
25	0xbe2c8a72	-0.16849688
26	0x3f21a89f	0.6314792
27	0x3e3d9c14	0.1851657
28	0xbdae72b6	-0.08517973
29	0xbf04a7ef	-0.51818746
30	0x3e834a87	0.25642797
31	0xbe77abd5	-0.24186642
32	0x3e7ff32f	0.24995111
33	0x3f235c31	0.6381255
34	0xbeb99faa	-0.36254627
35	0xbe03e7f5	-0.12881453
36	0x3e0bedb0	0.1366489
37	0x3e0e62ba	0.13904849
38	0xbc4a914f	-0.012363746
39	0xbf0bf124	-0.54664826
40	0x3d53a22b	0.051668327
41	0xbe1ce20d	-0.15320607
42	0xbea318f3	-0.31854972
43	0xbeb8ae0f	-0.36070296
44	0xbf542b54	-0.82878613
45	0xbe50994f	-0.20370983
46	0x3ebd4e24	0.3697368
47	0xbdc5eec4	-0.096646816
48	0x3d929ebe	0.07159184
49	0x3c94c5fd	0.018160814
50	0x3f0467ac	0.5172069
51	0x3ecc0da7	0.39854166
52	0x3db60c41	0.08889056
53	0xbe9a0927	-0.30085108
54	0xbdf594b0	-0.119912505
55	0x3f30d2d4	0.690717
56	0xbe1bc370	-0.15211272
57	0xbe38252f	-0.17982934
58	0xbf0cf4df	-0.55061144
59	0xbf3e0837	-0.74231285
60	0xbe4df1a9	-0.20111717
61	0xbeb15034	-0.34631503
62	0xbe823c82	-0.2543679
63	0xbec613dd	-0.3868703
64	0x3d8fc197	0.07019346
65	0x3eb622e6	0.355735
66	0xbedf8986	-0.4365961
67	0x3f21078c	0.6290214
68	0x3e53e223	0.20691733
69	0xbe49a4cd	-0.19691773
70	0xbedf36a3	-0.43596372
71	0x3d6dbab2	0.058039375
72	0x3eea4027	0.4575207
73	0x3ea61101	0.32434848
74	0xbf26c562	-0.6514493
75	0xbb89fe1a	-0.0042111995
76	0xbd29f45d	-0.04149281
77	0x3ef538e1	0.47894958
78	0x3f3fca4a	0.74918044
79	0xbf49c089	-0.7880941
80	0x3dd3741e	0.10324882
81	0xbe6d233a	-0.23157969
82	0xbf083133	-0.5320007
83	0xbef8da5a	-0.4860409
84	0x3e9f5be5	0.31124797
85	0xbb8e2297	-0.0043376195
86	0xbea313b5	-0.31850973
87	0xbdf05534	-0.11735001
88	0xbeb867cd	-0.36016694
89	0x3eacdb60	0.3376112
90	0xbb869fc1	-0.0041083996
91	0xbce52475	-0.027971486
92	0x3ed219a9	0.41035202
93	0xbd94ba4f	-0.07262098
94	0xbf3d1263	-0.7385618
95	0xbdb699e5	-0.08916072
96	0x3ea32556	0.31864423
97	0xbef40a7f	-0.47664258
98	0xbe3c76fe	-0.18404767
99	0xbd5822fa	-0.05276773
100	0xbe2fd323	-0.17170386
101	0x3ee81664	0.45329583
102	0xbf403806	-0.75085485
103	0x3e73b028	0.23797667
104	0xbeb68c60	-0.35653973
105	0xbf2d2f0a	-0.676499
106	0xbed25ea3	-0.41087827
107	0xbe626ee1	-0.2211261
108	0x3e9c374a	0.30510932
109	0xbe8b03ad	-0.27151242
110	0x3ed74608	0.42045617
111	0x3dca715c	0.09884903
112	0xbf4fdd08	-0.8119664
113	0x3efd66ff	0.49492642
114	0xbcef1637	-0.029185398
115	0xbf041e59	-0.51608807
116	0xbed506ab	-0.4160665
117	0x3e9783d2	0.29592758
118	0x3e9072bb	0.28212532
119	0xbda623cb	-0.08112296
120	0x3e4355eb	0.19075744
121	0x3e5cce0d	0.21562977
122	0x3ee37715	0.4442679
123	0x3e570bf9	0.21000661
124	0x3edda73c	0.43291652
125	0xbeb64a36	-0.35603493
126	0xbe53b5cc	-0.20674819
127	0xbf0bade9	-0.5456224
128	0x3f09dae1	0.5384961
129	0x3eb009f8	0.34382606
130	0x3db9f05a	0.090790465
131	0xbda4b93d	-0.08043144
132	0x3b95f74a	0.0045765983
133	0xbe94399a	-0.28950197
134	0xbf5afaf8	-0.855392
135	0xbca47c02	-0.020078663
136	0x3b76bcf6	0.003764925
137	0x3e23577b	0.1595134
138	0x3f06f8dc	0.5272348
139	0x3e57b3f1	0.21064736
140	0xbf18be58	-0.5966544
141	0x3f1753e6	0.59112394
142	0x3eaeb553	0.34122714
143	0xbe91fda1	-0.28513816
144	0xbeb2ff0b	-0.34960207
145	0x3e11e212	0.14246395
146	0x3e7b05a8	0.24513876
147	0x3dc7d027	0.09756499
148	0x3ca4e7e0	0.020130098
149	0x3d8f6996	0.07002561
150	0x3f19a9f6	0.60024965
151	0xbefbb8f7	-0.49164554
152	0x3bbcd605	0.005762818
153	0xbe93d26a	-0.2887147
154	0xbf541f4c	-0.82860255
155	0xbe620715	-0.22073014
156	0xbe25ee7b	-0.16204254
157	0x3e73ca23	0.23807578
158	0x3f1a7ebc	0.6034963
159	0xbe22f90e	-0.1591532
160	0x3ddb073c	0.10694739
161	0x3d8990c4	0.06717065
162	0x3e07b94f	0.13254283
163	0x3e8ba0f5	0.27271238
164	0x3ec45942	0.38349348
165	0xbe70578c	-0.23470896
166	0x3e9ba37c	0.30398166
167	0xbed2a8bc	-0.4114436
168	0x3e22ed07	0.15910731
169	0x3ef2e67b	0.47441468
170	0xbdfd95c5	-0.12382082
171	0xbeeca1d7	-0.46217224
172	0xbe464c45	-0.19365032
173	0x3eab0225	0.33400074
174	0xbea1dc64	-0.31613457
175	0x3f05d976	0.52284944
176	0xbe8ef735	-0.2792298
177	0xbf17ccb9	-0.59296757
178	0x3e59c584	0.21266752
179	0x3f36efc6	0.71459615
180	0x3e35b62d	0.17745276
181	0xbe3f50d9	-0.18683185
182	0xbf2855df	-0.6575603
183	0x3d2112fc	0.039324746
184	0xbed1554a	-0.40885383
185	0x3c98aec9	0.018638032
186	0xbe8a76f9	-0.27043894
187	0x3edc3a6e	0.43013328
188	0xbe81ce5c	-0.25352752
189	0x3ef225ec	0.47294557
190	0x3e784ed8	0.24248827
191	0x3d90b77e	0.07066248
192	0x3e9bba5e	0.30415624
193	0xbd76e92a	-0.060280956
194	0x3e225d93	0.15856008
195	0xbef4bf3f	-0.4780216
196	0x3e3e3624	0.1857534
197	0x3e43ded4	0.19127971
198	0x3bd4c6f7	0.006493445
199	0xbe58b14d	-0.21161385
200	0xbee4dec4	-0.44701207
201	0xbca4e689	-0.020129459
202	0xbd1a1380	-0.037616253
203	0xbf1c79b2	-0.6112319
204	0xbd3228b7	-0.04349586
205	0x3ef7bfb9	0.4838846
206	0x3a17f2ab	0.0005796353
207	0x3ec8aa1c	0.39192283
208	0x3f40502b	0.75122327
209	0xbc94a9df	-0.018147407
210	0xbf45f695	-0.7732938
211	0x3ebcf874	0.36908305
212	0x3ecaa753	0.39580783
213	0xbceb112d	-0.028694713
214	0x3d467a68	0.04845658
215	0xbf03b682	-0.5145036
216	0x3f588aa6	0.8458656
217	0xbdc5cd19	-0.0965826
218	0xbe915d32	-0.28391415
219	0xbddcf74b	-0.10789355
220	0x3ea185c3	0.31547365
221	0xbe5684ab	-0.20949046
222	0xbe9e92cb	-0.3097137
223	0x3ef0c6eb	0.47026762
224	0x3e396a66	0.18106994
225	0xbea06c34	-0.31332552
226	0xbcbd8aa7	-0.023137404
227	0x3d3dd8ee	0.04634946
228	0xbd94e727	-0.07270651
229	0xbf017ac8	-0.50577974
230	0xbda14834	-0.078751
231	0x3f5ec2e2	0.8701612
232	0xbeb2fae0	-0.34957027
233	0xbdcae067	-0.099060826
234	0xbf718848	-0.94348574
235	0x3ec26119	0.37964705
236	0xbe921798	-0.28533626
237	0xbf15dc4c	-0.5853927
238	0x3f3427f1	0.70373446
239	0xbdbad4ed	-0.091226436
240	0xbe1d2988	-0.15347874
241	0x3d9f6c51	0.077843316
242	0x3f599b05	0.85002166
243	0xbd94cf61	-0.07266117
244	0xbec784a1	-0.38968375
245	0xbe627d8a	-0.22118202
246	0xbdd375fc	-0.10325238
247	0xbef128fa	-0.47101575
248	0x3e537879	0.20651425
249	0xbd39a1ff	-0.045320507
250	0x3efec3bf	0.49758717
251	0xbf7215a0	-0.9456425
252	0x3f0e2ffe	0.5554198
253	0x3e658343	0.22413354
254	0xbe42d839	-0.19027795
255	0xbeff5af5	-0.49874082

network_body._body_endoder.seq_layers.0.bias f4 [128]
0	0x3c3fbf92	0.011703389
1	0x3ba25a9a	0.004954648
2	0x37bc097e	2.2415767e-05
3	0xbb558541	-0.0032580646
4	0xb92c5c74	-0.0001643764
5	0xbc8e0041	-0.017334105
6	0xbbd6c8ea	-0.0065547125
7	0x3be5bbe1	0.0070109223
8	0x3bd91db9	0.0066258577
9	0xbc17eaab	-0.009272258
10	0x3bf75c23	0.0075488253
11	0x3cc59686	0.024119627
12	0xbc46f7da	-0.012144053
13	0xba82a656	-0.0009967785
14	0xbb9e429e	-0.0048297187
15	0x3a966f70	0.0011477303
16	0x3c04050d	0.008057845
17	0x3c0102ad	0.007874173
18	0xbb6b02a8	-0.0035859738
19	0x3bd72491	0.0065656384
20	0xbaf39b5d	-0.001858573
21	0xbb3d699d	-0.0028902062
22	0xbb10375d	-0.0022005655
23	0xbbea54e2	-0.007151232
24	0x3b1576b0	0.002280634
25	0x3b5e919b	0.00339613
26	0x3bd2d6d6	0.006434302
27	0xbb6e683d	-0.0036378049
28	0xbc3f9ce0	-0.011695117
29	0x3b26d5da	0.0025457055
30	0x3c0df0b1	0.008663342
31	0xb9003d98	-0.00012229977
32	0xbc75192b	-0.014959614
33	0xbbadba28	-0.0053017326
34	0xbb9b9730	-0.0047482476
35	0x3caaea7b	0.020863762
36	0x3c81cecd	0.01584568
37	0xbb2ca752	-0.0026344848
38	0x3b4bc23f	0.0031091121
39	0xbc6be782	-0.0143984575
40	0xbc919cfc	-0.017775051
41	0xbba669c2	-0.0050785253
42	0x3c867e06	0.016417515
43	0xbc7ea134	-0.0155413635
44	0xbbac6798	-0.005261373
45	0x3bde5931	0.006785535
46	0x3af91442	0.001900323
47	0xbbdad17a	-0.0066778036
48	0xba81ea03	-0.000991166
49	0x3c0c0846	0.008546894
50	0xbb8af6c6	-0.0042408435
51	0xba1b188c	-0.00059164385
52	0x3bd4b656	0.0064914627
53	0x3c49bad1	0.012312607
54	0xbc4f1077	-0.012638203
55	0xbaf9df8d	-0.0019063816
56	0xbbe27396	-0.0069107516
57	0x3d110be6	0.035411738
58	0x3c0b8eaf	0.008517905
59	0x3c2fb895	0.01072516
60	0x3a33bd8c	0.0006856553
61	0x3c0149c4	0.007891122
62	0x3ab4da8d	0.0013798043
63	0x3b150e14	0.0022743987
64	0x3c53155b	0.0128835095
65	0xbb35fd50	-0.0027769394
66	0x3cb3da35	0.021954635
67	0xbc11fe6e	-0.008910758
68	0x3bcf528a	0.006326978
69	0x3be8e276	0.0071070744
70	0xbbe3cf0b	-0.0069521717
71	0x3bdb1947	0.006686363
72	0x3c1449eb	0.009050827
73	0x3b7fb533	0.0039017915
74	0xbabaf6d7	-0.0014264238
75	0xbb5ada47	-0.0033394264
76	0x3c141e58	0.009040438
77	0xbbdf237b	-0.0068096495
78	0xbc33e8e1	-0.010980816
79	0x3b880383	0.0041508093
80	0x3c2f16b2	0.010686563
81	0xba1c8ef8	-0.0005972232
82	0x3be46c96	0.0069709523
83	0x3b62ae19	0.0034588634
84	0x3b6441a8	0.0034829173
85	0x3bb4e6ac	0.0055206623
86	0xbb92ae48	-0.0044763424
87	0x3b04b48c	0.0020249216
88	0x3c0bb15c	0.0085261725
89	0x3c640d48	0.013919182
90	0xbbdf48bf	-0.006814092
91	0x3c2429b1	0.010019706
92	0xbcaacf7a	-0.020850886
93	0xbbcc2b31	-0.0062307348
94	0xb929b2ea	-0.00016183747
95	0xbb8ca6c6	-0.004292342
96	0xbbf538e4	-0.0074835885
97	0xbb01169b	-0.0019697312
98	0x3c67cb69	0.014147618
99	0x3b0bf9ff	0.0021358726
100	0x3c95f303	0.018304354
101	0xbb1f62a8	-0.0024320278
102	0x3a29a3a9	0.00064712256
103	0xbac344a5	-0.0014897777
104	0xbb914391	-0.0044331034
105	0xbb97c9ef	-0.0046322267
106	0x3aa9e1f4	0.0012961016
107	0xb9c3195a	-0.00037212187
108	0xbba0a576	-0.004902537
109	0xbc1034b8	-0.008801632
110	0xbc05f8b7	-0.008176974
111	0xbbdb3a76	-0.0066903187
112	0x3be48b8f	0.0069746445
113	0xbc5a208f	-0.013313427
114	0xbc84dbfd	-0.01621818
115	0x3c11ab0f	0.008890881
116	0xbbdd5864	-0.0067549217
117	0x3a1132a8	0.00055388594
118	0x3bc03805	0.005866053
119	0xb999c7a3	-0.00029331175
120	0xba7b588d	-0.0009588085
121	0x3be3e7d1	0.006955125
122	0x3c393eb2	0.011306452
123	0x3a5d400c	0.00084400247
124	0x3c309bb9	0.010779315
125	0xbb0a449c	-0.0021098023
126	0xbb90c9af	-0.004418574
127	0x3c14a273	0.009071934

network_body._body_endoder.seq_layers.2.weight f4 [128, 128]
0	0x3cc5859c	0.024111561
1	0x3ccbf5a6	0.024897408
2	0xbcc371d8	-0.023857996
3	0xbe0ab993	-0.13547353
4	0xbda4baef	-0.08043467
5	0xbb51d896	-0.0032019964
6	0x3d39e26a	0.04538194
7	0x3d9efb70	0.07762802
8	0x3c5ffb2e	0.013670726
9	0xbe0148fd	-0.12625499
10	0xbd3c9786	-0.04604294
11	0xbda34d41	-0.079737194
12	0xbe1639df	-0.14670514
13	0xbde98087	-0.11401468
14	0xbd3d699d	-0.0462433
15	0xbe3bc3a6	-0.18336353
16	0x3d33c337	0.043887343
17	0xbd3d0469	-0.046146784
18	0x3d897594	0.067118794
19	0xbc6ea201	-0.014564992
20	0x3e3ee2f4	0.18641263
21	0x3d86dc30	0.06584966
22	0x3d1d7ffe	0.03845214
23	0x3d334692	0.043768473
24	0x3de23250	0.110447526
25	0xbc807637	-0.01568137
26	0x3dedd1f3	0.1161231
27	0xbd41e7ab	-0.047340076
28	0x3a3c1c36	0.00071758346
29	0x3d198cea	0.0374879
30	0xbd3966c0	-0.045264006
31	0xbca63596	-0.020289224
32	0x3d3d62cd	0.046236802
33	0x3d49de09	0.049284015
34	0x3d40e818	0.04709634
35	0xbdec78c3	-0.11546471
36	0xbe0d742b	-0.13813846
37	0x3cce8897	0.025211615
38	0xbdd4e24e	-0.10394727
39	0x3d1e9955	0.038720448
40	0xbd45d666	-0.04830017
41	0xbcad021c	-0.02111917
42	0x3dcd055e	0.10010789
43	0xbcc77496	-0.024347585
44	0x3d6376db	0.05553327
45	0xbb0ea1d6	-0.0021763942
46	0xbcd37539	-0.025812732
47	0xbd62cdb5	-0.05537196
48	0x3cea5e1d	0.02860933
49	0xbd6d3575	-0.05791231
50	0x3d34eb8d	0.04416995
51	0xbd8aa5ab	-0.0676988
52	0x3ce474db	0.027887752
53	0x3d7d0b05	0.061778087
54	0x3dcc2334	0.09967652
55	0x3dc125c1	0.09431029
56	0x3d1043d8	0.03522095
57	0xbcba9d41	-0.022780063
58	0xbd69e52b	-0.057103317
59	0xbb0db98d	-0.002162549
60	0x3d0e60ab	0.03476016
61	0x3d80f787	0.06297212
62	0x3dcd5376	0.100256845
63	0xbdab7b3c	-0.083731145
64	0xbd93a0f7	-0.07208436
65	0xbd70c115	-0.058777887
66	0x3aad9e04	0.0013245945
67	0xbd834133	-0.0640892
68	0x3d57efd8	0.052718967
69	0x3dc40d95	0.09572903
70	0xbd69c61c	-0.057073697
71	0x3d2d63d4	0.04233153
72	0xbae1e45f	-0.0017234198
73	0xbc03050a	-0.007996807
74	0x3c8416b5	0.016124109
75	0x3bf2caf2	0.007409447
76	0x3c992499	0.018694209
77	0x3cbf5340	0.023355126
78	0x3cb68b7f	0.022283314
79	0x3da58260	0.08081508
80	0xbdecbe72	-0.11559762
81	0x3e09f8e6	0.13473853
82	0x3d27bc82	0.04095126
83	0x3e2fbf15	0.17162736
84	0x3cc2c46d	0.023775304
85	0x3d6d8fbe	0.05799841
86	0xbb87a674	-0.004139716
87	0xbd297f97	-0.041381445
88	0x3d286142	0.041108377
89	0x3dad0584	0.08448318
90	0xbd4d83bd	-0.050174464
91	0x3d111412	0.03541953
92	0x3c294830	0.010332152
93	0x3dd977f9	0.10618586
94	0x3d97d046	0.07412772
95	0x3d36f68e	0.044668727
96	0xbd8e7b06	-0.069570586
97	0xbbbd7aa2	-0.0057824412
98	0x3e012ea8	0.12615454
99	0x3e0c2535	0.13686068
100	0x3df2684b	0.118362986
101	0x3de5275f	0.1118915
102	0x39f40d49	0.00046549205
103	0xba84061c	-0.0010072622
104	0x3d60e1ee	0.054902963
105	0x3d2b9cd8	0.041897625
106	0x3b78a5ef	0.00379407
107	0x3ce1651f	0.027514039
108	0x3cbd0638	0.023074254
109	0x3d97e5f1	0.07416905
110	0x3dcedbde	0.1010053
111	0x3d0d3012	0.03446967
112	0x3cf02651	0.029315146
113	0x3c858e25	0.016303131
114	0x3de808c3	0.11329796
115	0x3d98e759	0.07466001
116	0xbdfc6a1e	-0.12324928
117	0x3d03725b	0.03209148
118	0x3db0af85	0.08627228
119	0xbe8fc943	-0.28083238
120	0x3dbb0126	0.091310784
121	0xbd0176ec	-0.031607553
122	0x3e36a4e7	0.17836343
123	0xbda33d9b	-0.07970735
124	0x3db435e0	0.08799338
125	0x3d88c9db	0.06679126
126	0xbe266ebc	-0.1625318
127	0xbdc121f2	-0.09430303
128	0xbd6cfe61	-0.057859782
129	0xbd1b1d42	-0.0378697
130	0xbd67bfca	-0.05657939
131	0xbc477f51	-0.012176351
132	0xbd6772e0	-0.056506038
133	0xbb8a8301	-0.0042270427
134	0xbd157955	-0.036492664
135	0x3dcca919	0.0999319
136	0xbd9ddd79	-0.07708258
137	0x3db2495e	0.087054
138	0x3ccc476a	0.024936397
139	0xbd8a6b0f	-0.06758701
140	0x3dcfbb95	0.101432
141	0x3df7acaa	0.1209348
142	0x3d9cf087	0.076630645
143	0xbc2479e8	-0.01003883
144	0x3db58eb6	0.088651106
145	0x3e02e586	0.12782869
146	0xbc3d478e	-0.0115527045
147	0x3d845229	0.06460983
148	0x3d72b46c	0.059254095
149	0x3e11889f	0.14212273
150	0x3deba08d	0.11505232
151	0x3d26487e	0.040596478
152	0x3d3dd5ca	0.046346463
153	0xbb809a11	-0.003924616
154	0x3b9a485d	0.0047083334
155	0x3e694a87	0.22782336
156	0xbc9f3875	-0.0194361
157	0xbd98eef2	-0.0746745
158	0xbda0bcea	-0.078485325
159	0x3d912210	0.07086575
160	0xbe348320	-0.17628145
161	0x3d459d27	0.048245575
162	0xbdd0b165	-0.10190085
163	0xbd5d9856	-0.054100357
164	0x3d4be7f2	0.049781747
165	0xbe132402	-0.14369205
166	0xbd9d0836	-0.07667582
167	0xbcaa99d5	-0.020825306
168	0xbd9e5628	-0.07731277
169	0xbc6eb12e	-0.01456861
170	0x3dfd83aa	0.123786286
171	0xbd6b8f90	-0.05750996
172	0x3d51cdde	0.05122172
173	0x3e59a5ad	0.21254607
174	0x3e8e636a	0.27810222
175	0x3d4234d0	0.047413647
176	0xbdf35b8d	-0.11882696
177	0x3dbe4dbb	0.0929217
178	0x3bf2b696	0.00740702
179	0x3c6498bf	0.013952433
180	0x3b1e3fe6	0.0024146973
181	0x3d73d5ce	0.059530072
182	0x3d60a4aa	0.054844536
183	0x3c61c50d	0.013779891
184	0x3d9fd887	0.07804971
185	0xbd8937ea	-0.06700118
186	0xbcd0339b	-0.025415232
187	0xbd3b4679	-0.045721505
188	0xbc8ac1b4	-0.016938068
189	0xbce302fb	-0.027711382
190	0x3957ffac	0.00020599243
191	0x3daede2a	0.08538468
192	0xbd4cf1b7	-0.050035205
193	0xbdbee24e	-0.09320508
194	0xbcc24cdf	-0.023718296
195	0x3d3072c0	0.043078184
196	0xbd7869ed	-0.060647894
197	0xbd185ed5	-0.037199814
198	0xbd080e2e	-0.033216648
199	0x3b1067a2	0.0022034426
200	0x3d8dce0c	0.06924066
201	0x3ddc5785	0.107588805
202	0xbddc864b	-0.10767802
203	0xbd060093	-0.03271539
204	0xbc268726	-0.010164058
205	0xbe34d30c	-0.17658633
206	0xbe0bdb7d	-0.13657947
207	0x3dc99dd9	0.0984456
208	0xbb3a5796	-0.0028433553
209	0xbd840ec5	-0.064481296
210	0xbc7b4e7a	-0.0153385345
211	0x3d10d00a	0.03535465
212	0x3d35a692	0.044348307
213	0x3c9bd7af	0.019023744
214	0x3d92f4c0	0.071755886
215	0x3e312e20	0.17302752
216	0xbe08db31	-0.13364865
217	0x3d175fa3	0.03695644
218	0xbdd9b759	-0.10630674
219	0x3dbfdd36	0.093683645
220	0xbc934430	-0.01797685
221	0xbdc567ea	-0.09638961
222	0xbc9bd823	-0.01902396
223	0xbdd10d06	-0.10207562
224	0x3d509f91	0.050933424
225	0xbd0b60c5	-0.034027833
226	0x3d4623ec	0.0483741
227	0xbd91c061	-0.071167715
228	0xbd9c15f3	-0.07621374
229	0xbd893f04	-0.067014724
230	0xbc42b59e	-0.011884121
231	0xbd4b5524	-0.049641743
232	0x3ccfdd14	0.025373973
233	0x3e286a7e	0.16446874
234	0xbe04a625	-0.12954004
235	0x3d486f3f	0.048934218
236	0x3a715536	0.0009206118
237	0xbd8a3386	-0.067481086
238	0x3e120c19	0.14262427
239	0x3d5e53ff	0.054279324
240	0x3d5b06d9	0.053473327
241	0x3d0600ba	0.032715537
242	0x3dbe154c	0.09281406
243	0xbcb90656	-0.022586029
244	0x3d25d7f6	0.04048916
245	0x3d2a02f8	0.041506737
246	0xbd0f37cc	-0.03496532
247	0x3d2bb636	0.041921817
248	0xbdc59d51	-0.09649146
249	0xbe1aab6d	-0.15104456
250	0xbaf20578	-0.0018464765
251	0xbe110caf	-0.14164995
252	0xbc6a3172	-0.014294015
253	0xbe114df8	-0.14189899
254	0x3e0e9c7e	0.13926885
255	0xbdcb5bed	-0.09929643

network_body._body_endoder.seq_layers.2.bias f4 [128]
0	0xbb4aa777	-0.003092257
1	0x3a907cbd	0.0011023503
2	0xbb197f60	-0.0023421869
3	0x3bc5684b	0.0060243956
4	0xba5f3f37	-0.00085161946
5	0xbb69a70b	-0.0035652544
6	0xbbbf4d19	-0.005838048
7	0xbba6277a	-0.005070624
8	0xbb246055	-0.0025081832
9	0xbb45ba8f	-0.0030171012
10	0x37f09e82	2.868404e-05
11	0x3c29bbde	0.010359732
12	0x3ad2c5eb	0.0016080713
13	0xbb855c67	-0.004069853
14	0x3c28f090	0.010311261
15	0x3c41eb2a	0.011835853
16	0x3b96a43e	0.004597216
17	0xbb94bdc1	-0.004539222
18	0xba7d1f7e	-0.0009655877
19	0xbaf93ff0	-0.0019016247
20	0xbbe88567	-0.007095981
21	0x39ee558f	0.00045458644
22	0xbb4a5c6e	-0.0030877846
23	0xbbbe0f03	-0.0058001294
24	0x3b1f1809	0.00242758
25	0x3b9e0beb	0.004823198
26	0xbc65a000	-0.014015198
27	0xbc2452fc	-0.010029551
28	0x3ba927c4	0.005162211
29	0x3c42ab72	0.011881696
30	0x3b151e6c	0.0022753729
31	0x3b86e796	0.0041169627
32	0xbbc7fa8f	-0.006102867
33	0xbbad333c	-0.0052856486
34	0x3ad3d80f	0.0016162413
35	0x3c3eece4	0.011653159
36	0x3c0282a0	0.007965714
37	0xba872f4a	-0.0010313776
38	0x3b773c0d	0.0037725002
39	0xba3ffc93	-0.0007323708
40	0x3b0b2458	0.002123138
41	0x3b69232d	0.0035573945
42	0xba0d0fa3	-0.0005381053
43	0x3be2375c	0.006903572
44	0x3b9647a4	0.004586177
45	0x3b8d051f	0.004303589
46	0xbc0965a4	-0.008386049
47	0xb9240954	-0.00015643734
48	0xbb92487e	-0.004464208
49	0x3b2a8a7f	0.0026022492
50	0xbb846505	-0.004040363
51	0xbc9690c4	-0.018379577
52	0xbba54852	-0.0050440216
53	0x3aa94ae7	0.0012915999
54	0x3aa9d675	0.001295759
55	0xbbcdbebe	-0.0062788418
56	0xbb450eca	-0.003006863
57	0x3bd5e624	0.006527679
58	0xbc82bf10	-0.015960246
59	0x3bce4612	0.006294974
60	0x3b9e3477	0.0048280316
61	0xbb96a6e9	-0.004597534
62	0xbb3156b9	-0.0027059747
63	0xbc663306	-0.014050251
64	0xbb6fa536	-0.003656698
65	0x3aaac5d8	0.0013028933
66	0x393ab2bc	0.00017804926
67	0xbb9d23e0	-0.0047955364
68	0xbbd64c00	-0.0065398216
69	0xbb21a20b	-0.0024663236
70	0xbabac1e0	-0.0014248453
71	0xbb7dfddd	-0.003875605
72	0xbc87acc5	-0.016561875
73	0x3bb1ce37	0.005426194
74	0xbc36be72	-0.011153804
75	0x3c41addd	0.011821237
76	0xbb7eb7ff	-0.0038866994
77	0xbbe9e44e	-0.0071378117
78	0xbb6d5cd0	-0.003621865
79	0x3bd1fd87	0.0064083966
80	0x3b1f59cb	0.0024314995
81	0x3c5d547a	0.01350891
82	0xbb1da804	-0.0024056444
83	0xbb492752	-0.0030693603
84	0x3bae2741	0.005314738
85	0xbb73d059	-0.0037203042
86	0xbaa3e834	-0.0012505115
87	0xbb892c8a	-0.0041862177
88	0x3c65e277	0.014031044
89	0xbb8d730a	-0.0043166922
90	0xbbe0c0f7	-0.0068589407
91	0xb8f8d7a6	-0.00011865729
92	0x3c80b699	0.01571207
93	0x3c07bd08	0.008284815
94	0xbb323965	-0.0027194854
95	0x38996e2c	7.3161296e-05
96	0x3b8da063	0.004322098
97	0xbc772c88	-0.015086301
98	0x3be124aa	0.006870826
99	0x3b63b782	0.003474683
100	0xbad8c3a6	-0.00165378
101	0xbc20084c	-0.009767603
102	0x3b00e62e	0.0019668448
103	0x3ab4ede1	0.0013803804
104	0xbc4cf56e	-0.012509687
105	0x3cb62552	0.022234593
106	0x380135dc	3.0806157e-05
107	0xbb2fea08	-0.0026842374
108	0x3bcbfa16	0.006224881
109	0x3b37406b	0.002796198
110	0x3c190476	0.0093394425
111	0x3a09149b	0.00052292057
112	0xbbbac99f	-0.0057003046
113	0x399ec2ce	0.0003028125
114	0xbbbfd114	-0.0058537815
115	0xbbbc780d	-0.005751616
116	0xbb5140f8	-0.0031929594
117	0x3990942d	0.0002757622
118	0xbbd55d64	-0.006511377
119	0x3bde9460	0.00679259
120	0x3c24ad6a	0.010051111
121	0xbb5382a3	-0.003227391
122	0x3ae56384	0.0017500971
123	0xbbbed491	-0.0058236797
124	0xba1be01e	-0.0005946177
125	0x3b160ba4	0.0022895122
126	0xbb9154cc	-0.0044351574
127	0x3b8232d5	0.003973345

action_model._continuous_distribution.log_sigma f4 [1, 2]
0	0xbd29ff99	-0.041503523
1	0xbce41696	-0.027842801

action_model._continuous_distribution.mu.weight f4 [2, 128]
0	0xbc9f3aa8	-0.01943715
1	0xbd0eae50	-0.034834206
2	0xbb481037	-0.0030527243
3	0x3c892af8	0.016744122
4	0x3bb3bbda	0.00548504
5	0x3ba594b4	0.005053127
6	0xbc11a727	-0.00888995
7	0xbc871094	-0.016487397
8	0x3b38bf8c	0.0028190343
9	0xbb4db43f	-0.0031387953
10	0xbd3519d7	-0.044214096
11	0x39cc34ba	0.00038949196
12	0xbcc3c819	-0.023899125
13	0xbc9ea6ba	-0.01936661
14	0x3d150c46	0.036388658
15	0x3ccaf998	0.024777219
16	0x3cc5e0df	0.024155078
17	0xbc19500a	-0.009357462
18	0xbcbc7ec9	-0.023009675
19	0xbd271fd3	-0.040801834
20	0x39211e98	0.00015365554
21	0xbc0a53da	-0.008442843
22	0xbd146bd8	-0.03623566
23	0xbc99a55c	-0.018755607
24	0xbc6e5ee6	-0.014548993
25	0x3d1cbaab	0.038263958
26	0x3c17f054	0.009273607
27	0xbaf930db	-0.0019011752
28	0x3ccddaf0	0.025128812
29	0x3d257ce8	0.040402323
30	0x3c3b41e5	0.011429285
31	0x3cb0d3c8	0.02158536
32	0xbadaa11b	-0.0016680093
33	0xbc7ec0dc	-0.015548911
34	0x3d0d168b	0.034445327
35	0xbcea98ce	-0.028637316
36	0x3c3bdf2d	0.0114667835
37	0xbb0db207	-0.0021621005
38	0x3d159cc4	0.036526456
39	0xbbb11f5c	-0.0054053497
40	0x3cc96dca	0.024588484
41	0xbc7ed92d	-0.015554708
42	0xbb3f7af6	-0.0029217578
43	0xbc2ed768	-0.010671474
44	0x3cdbb67c	0.026820414
45	0x3d4ce737	0.05002519
46	0x3bfcaabb	0.0077107823
47	0xbc154d19	-0.00911262
48	0xbca1049a	-0.019655515
49	0x3d0562bc	0.032564864
50	0x3b0d85d0	0.002159465
51	0x3b811d21	0.00394024
52	0xbc3be671	-0.011468516
53	0x3c5bf18c	0.0134242885
54	0x3b31c10e	0.0027123126
55	0xbc75d180	-0.015003562
56	0xbbc71a01	-0.006076098
57	0x3c417042	0.0118065495
58	0x3cb97d36	0.022642713
59	0xbc3a3b99	-0.011366748
60	0xba41867c	-0.00073824055
61	0xbc57d49b	-0.013173248
62	0xbb1be439	-0.0023787154
63	0x3c70b196	0.014690777
64	0xbd241c91	-0.040066306
65	0x3c5ed69d	0.0136009725
66	0x3bed7e64	0.007247733
67	0xbbc0055b	-0.0058600134
68	0xbcda1bfc	-0.026624672
69	0xbc79ce0c	-0.015246879
70	0x3b6dbe10	0.0036276616
71	0xbcf6b775	-0.030116776
72	0x3b129070	0.0022363923
73	0x3cac976b	0.021068295
74	0xbc46c5f3	-0.012132156
75	0xbcbcd034	-0.023048498
76	0x3bc44777	0.0059899646
77	0xbc3811bf	-0.0112347
78	0xbb9b93a0	-0.004747823
79	0x3cab04e9	0.020876365
80	0xbbaa34d4	-0.005194286
81	0xbce8c35d	-0.028413469
82	0xbc8013d8	-0.015634462
83	0xbbe0754b	-0.00684992
84	0x3b955938	0.004557755
85	0xbbeef3d9	-0.0072922525
86	0x3c43f590	0.011960402
87	0x3b29fd8e	0.0025938484
88	0xbca953c4	-0.020669825
89	0xbcca6b3f	-0.024709342
90	0xbbbf558d	-0.005839056
91	0xbd13e949	-0.03611115
92	0x3d1a7a25	0.037714142
93	0xbc8df895	-0.017330447
94	0xbd420c48	-0.047374994
95	0xbcf4e18a	-0.029892702
96	0xbcfd3eb9	-0.030913698
97	0x3c50a654	0.012734968
98	0x3d0607fa	0.03272245
99	0x3cbc6d41	0.023001315
100	0x3c1f7c6d	0.009734255
101	0x3a0473cf	0.0005052657
102	0x3c6f7e62	0.014617534
103	0xbccb00dc	-0.024780683
104	0x3d0ac4af	0.03387898
105	0x3c44a052	0.012001114
106	0x3c0aad3b	0.008464153
107	0xbaa7740d	-0.0012775675
108	0x3d35d285	0.04439022
109	0x3cc4777b	0.023982754
110	0xbcf3c125	-0.029755184
111	0x3cc67c75	0.024229268
112	0xbb85bbae	-0.004081211
113	0xbc8ad57a	-0.016947497
114	0xbc9d133f	-0.019174216
115	0xbca31450	-0.019907147
116	0xbc0eef9b	-0.008724119
117	0xbcb7830d	-0.022401357
118	0xbbbee91f	-0.00582613
119	0x3ca9fb8c	0.02074983
120	0x3a1dbf2e	0.00060175627
121	0xbca50972	-0.020146105
122	0x3c6dec5f	0.014521687
123	0x3b9a692a	0.0047122436
124	0xbc40e268	-0.011772729
125	0xbccf555d	-0.02530926
126	0xbc5826de	-0.01319286
127	0x3c27fdc0	0.01025337
128	0x3cbe0105	0.023193846
129	0x3cbd984e	0.023143914
130	0x3c8419a5	0.01612551
131	0xbc0bc8ef	-0.008531793
132	0x3c460d91	0.012088195
133	0x3c21e7df	0.0098819425
134	0x3c4893e1	0.012242288
135	0xbc668b06	-0.014071232
136	0xbba0f02f	-0.0049114446
137	0xbd221271	-0.03956837
138	0xbd12cc86	-0.03583958
139	0xbd00011f	-0.03125107
140	0x3c4bd310	0.012440458
141	0xbc3ff05b	-0.01171502
142	0x39f09905	0.00045890376
143	0x3d3556e5	0.044272322
144	0xbbc39848	-0.005969081
145	0xbc474f26	-0.012164867
146	0xbc9a8656	-0.018862884
147	0xb7c9815d	-2.4021307e-05
148	0x3c000abf	0.007815062
149	0xba4fa252	-0.0007920611
150	0x3ca37ba0	0.01995641
151	0x3cc0cc82	0.023535017
152	0xbc06812c	-0.008209508
153	0xbccd8f7d	-0.025092835
154	0x39c6ffbc	0.0003795604
155	0x3c673df3	0.014113891
156	0x3c2eda53	0.01067217
157	0x3c291a2e	0.010321183
158	0xbc7f1180	-0.015568137
159	0xbaef91fe	-0.0018277762
160	0x3c136213	0.008995551
161	0xbb405131	-0.002934527
162	0x3c0da1ca	0.008644531
163	0x3ab3f3d1	0.0013729279
164	0xbd22cbaf	-0.03974503
165	0xbc35bbd0	-0.011092141
166	0x3c788e31	0.01517062
167	0xbcffc536	-0.031221967
168	0x3cb201da	0.021729399
169	0xbbab27b5	-0.0052232393
170	0xbd2cbcc2	-0.0421722
171	0xbd848370	-0.06470382
172	0x3c4b53bc	0.012410101
173	0x39b3a5a8	0.00034264964
174	0xbc459e07	-0.012061602
175	0xbcb2b88a	-0.02181651
176	0xbc5a4199	-0.013321304
177	0x3ce423fb	0.027849188
178	0x3c2dbfe9	0.010604837
179	0xbbffe404	-0.007809164
180	0x3c6c2598	0.01441326
181	0xbc733d42	-0.014846148
182	0xbc3ae894	-0.01140799
183	0x3c695025	0.014240299
184	0xbca2a10e	-0.019852187
185	0xbd4ad175	-0.04951616
186	0xbc8a71d6	-0.016899984
187	0xbad46434	-0.0016204179
188	0x3cb7101a	0.022346545
189	0xbbceb234	-0.0063078646
190	0x3cc941f5	0.024567584
191	0xbb230f9b	-0.0024881128
192	0xbba4c985	-0.005028906
193	0x3bd00007	0.0063476595
194	0x3c1a9900	0.009435892
195	0xbc1273dd	-0.008938757
196	0xbc17742b	-0.009244005
197	0x3c05bf7a	0.008163327
198	0xbc9d61d5	-0.019211689
199	0xbc1076c2	-0.008817377
200	0x3b1b8262	0.0023728837
201	0x3b1fef0f	0.0024403965
202	0x3c8d5ca2	0.017256085
203	0x3d1f3cb9	0.03887627
204	0xbd0a4aff	-0.033762928
205	0xba86203e	-0.0010232998
206	0x3c99a6dc	0.018756323
207	0xbc6ea844	-0.014566485
208	0xbc485596	-0.0122274365
209	0xbccf4662	-0.025302116
210	0xbd02766b	-0.031851213
211	0x3c4a2b4a	0.0123394225
212	0xbcee1f44	-0.029067643
213	0xbc2ed5c5	-0.010671084
214	0x3c7852d6	0.015156468
215	0xbbc02dbb	-0.0058648265
216	0x3c002080	0.007820249
217	0xbcfffbab	-0.031247934
218	0xbc39c32b	-0.011338036
219	0x3b354f2f	0.0027665605
220	0xbcd78aef	-0.026311366
221	0x3d19f4e0	0.037587047
222	0x3b3ee4b4	0.0029128017
223	0xbc3e2c1d	-0.011607197
224	0xbcb0d657	-0.02158658
225	0x3cf9f500	0.030512333
226	0x3c39a202	0.01133013
227	0x3ba5d185	0.005060377
228	0x3bd9a79e	0.006642296
229	0xbc86a55f	-0.016436277
230	0x3b3fc13b	0.0029259461
231	0xbc67c4e4	-0.0141460635
232	0x3c057e8c	0.008147847
233	0x3d32bd76	0.043637715
234	0x3c685b5c	0.014181938
235	0x3c82c753	0.015964186
236	0xbc9f5625	-0.019450257
237	0x3cdb635a	0.026780773
238	0xbcc155ee	-0.023600545
239	0x3c9ff046	0.019523751
240	0x3c814e24	0.01578433
241	0xbc8be503	-0.017076975
242	0x3c7e9e59	0.015540683
243	0xbbe01d15	-0.0068394043
244	0xbcdb1a7e	-0.02674603
245	0x3c3e3a50	0.0116105825
246	0xba84acff	-0.0010122358
247	0xbcb6c5a9	-0.022311049
248	0xbd164309	-0.036685023
249	0xbc883da1	-0.01663095
250	0x3d06e585	0.03293373
251	0xbb71b7c0	-0.0036883205
252	0xba790b91	-0.000950032
253	0x3b80baa4	0.0039284993
254	0x3c75f1d8	0.015011273
255	0xbcabbe59	-0.020964788

action_model._continuous_distribution.mu.bias f4 [2]
0	0x3ba3296c	0.004979303
1	0xb9302c27	-0.00016801116
