MachineLearningDev/results/MoveToGoal2/MoveToGoal/checkpoint.pt (torch, 441378 bytes, 36 tensors)

network_body._body_endoder.seq_layers.0.weight f4 [128, 6]
0	0xbc1d3c27	-0.009596861
1	0x3f2309ea	0.63687
2	0xbf348723	-0.705187
3	0xbd56d610	-0.05245024
4	0xbd84c357	-0.064825706
5	0x3cfe8474	0.031069018
6	0x3f1ee538	0.6206851
7	0xbe10852a	-0.14113298
8	0x3c865393	0.016397273
9	0x3ea84d2a	0.32871372
10	0xbe8f8597	-0.28031608
11	0x3ee3d765	0.4450027
12	0x3e484fcc	0.1956169
13	0xbec3294c	-0.38117445
14	0x3f465d32	0.77485955
15	0x3e853e8e	0.26024288
16	0x3e4ee537	0.20204626
17	0xbe2aa0ee	-0.16662952
18	0x3f3a0359	0.7266136
19	0xbecba9ec	-0.39778078
20	0xbdb8abe3	-0.0901716
21	0x3f69f8ef	0.9139547
22	0x3bcf840a	0.006332879
23	0x3f2b3043	0.66870517
24	0x3e39cbf1	0.18144204
25	0xbe308740	-0.17239094
26	0x3f390569	0.7227388
27	0x3e2e15c1	0.17000486
28	0xbdae72b6	-0.08517973
29	0xbf277648	-0.6541486
30	0x3e43b87a	0.19113341
31	0xbe78628a	-0.2425634
32	0x3e87c98b	0.26520953
33	0x3f1a1a78	0.6019664
34	0xbeb99faa	-0.36254627
35	0xbe4669f6	-0.19376358
36	0x3d07b562	0.033131965
37	0x3e0e42e4	0.13892704
38	0x3d23ea03	0.040018093
39	0xbf18d77d	-0.5970381
40	0x3d53a22b	0.051668327
41	0xbe5dbffd	-0.21655269
42	0xbe92a98b	-0.28644976
43	0xbeb8dca3	-0.36105832
44	0xbf546d9d	-0.82979757
45	0xbe76728a	-0.2406713
46	0x3ebd4e24	0.3697368
47	0xbd114003	-0.035461437
48	0x3d2f5749	0.04280785
49	0x3c7c6df6	0.015407076
50	0x3f0f3f48	0.55955935
51	0x3ecaf736	0.39641732
52	0x3db60c41	0.08889056
53	0xbed271c5	-0.41102424
54	0xbd6a76c4	-0.05724217
55	0x3f30ca49	0.6905866
56	0xbda71633	-0.08158531
57	0xbe4614da	-0.19343892
58	0xbf0cf4df	-0.55061144
59	0xbf471dbe	-0.7777976
60	0xbe629003	-0.22125249
61	0xbeb16d85	-0.3465387
62	0xbe7fee03	-0.24993138
63	0xbed73e20	-0.42039585
64	0x3d8fc197	0.07019346
65	0x3e9658eb	0.29364714
66	0xbee021a8	-0.43775678
67	0x3f210348	0.6289563
68	0x3e8d409a	0.2758835
69	0xbe81424f	-0.25245902
70	0xbedf36a3	-0.43596372
71	0xbd005664	-0.03133239
72	0x3ee3cfef	0.44494578
73	0x3ea70279	0.32619074
74	0xbf37b99b	-0.71767586
75	0xbc9dce4c	-0.01926341
76	0xbd29f45d	-0.04149281
77	0x3f186465	0.5952819
78	0x3f31398a	0.6922842
79	0xbf49c1e7	-0.78811496
80	0x3e66c91c	0.22537655
81	0xbea44e16	-0.32090825
82	0xbf083133	-0.5320007
83	0xbf0897de	-0.5335673
84	0x3ea6bbb0	0.3256507
85	0xbb250ed1	-0.0025185833
86	0xbed3850a	-0.41312438
87	0xbdf2d7f5	-0.11857597
88	0xbeb867cd	-0.36016694
89	0x3ec34ca8	0.38144422
90	0x3c7aedb3	0.015315461
91	0xbce1cf1d	-0.02756458
92	0x3ede035d	0.4336194
93	0xbd3e82aa	-0.04651133
94	0xbf3d1263	-0.7385618
95	0xbe42f53d	-0.19038863
96	0x3ea39739	0.3195131
97	0xbef35e6e	-0.47532982
98	0xbe87ccdc	-0.26523483
99	0xbd8b07d7	-0.06788605
100	0xbe2fd323	-0.17170386
101	0x3f080524	0.53132844
102	0xbf48d0e4	-0.7844374
103	0x3e73a647	0.23793899
104	0xbebfa14d	-0.3742775
105	0xbf20bcee	-0.62788284
106	0xbed25ea3	-0.41087827
107	0xbe816c85	-0.25278106
108	0x3e40d45e	0.18831012
109	0xbe8a92d2	-0.2706514
110	0x3e9ebe75	0.31004682
111	0xbd7b2d15	-0.06132229
112	0xbf4fdd08	-0.8119664
113	0x3ecaed40	0.39634132
114	0xbd211e36	-0.039335452
115	0xbf0422d6	-0.51615655
116	0xbee96d1a	-0.4559105
117	0x3e8ac1eb	0.27101073
118	0x3e9072bb	0.28212532
119	0x3cbbc1a0	0.022919476
120	0x3e0cad7e	0.13738057
121	0x3e5b649e	0.21425101
122	0x3f04e0a2	0.5190526
123	0x3e259a82	0.16172221
124	0x3edda73c	0.43291652
125	0xbeeeef0f	-0.46666762
126	0xbe756909	-0.23965849
127	0xbf0bd74d	-0.546254
128	0x3f1735fe	0.5906676
129	0x3eb04885	0.34430328
130	0x3db9f05a	0.090790465
131	0xbe4b0ff4	-0.19830304
132	0x3d9adcc2	0.075616375
133	0xbe93f17b	-0.28895172
134	0xbf59b2b5	-0.8503831
135	0x3c79387c	0.015211221
136	0x3b76bcf6	0.003764925
137	0x3ea4ad4a	0.3216346
138	0x3eee08a3	0.46490964
139	0x3e586df3	0.21135692
140	0xbf2bac4c	-0.6705978
141	0x3f010cee	0.50410354
142	0x3eaeb553	0.34122714
143	0xbe0d1ca5	-0.13780458
144	0xbecb9822	-0.39764506
145	0x3e13c568	0.14430773
146	0x3e94e14a	0.29078132
147	0x3e05653a	0.13026896
148	0x3ca4e7e0	0.020130098
149	0x3d38225a	0.044954635
150	0x3f13ecf1	0.5778342
151	0xbefb8933	-0.49128112
152	0x3d969716	0.07353036
153	0xbeb35308	-0.35024285
154	0xbf541f4c	-0.82860255
155	0xbe9604b0	-0.2930045
156	0xbe4388d9	-0.19095172
157	0x3e74158c	0.23836344
158	0x3f146b6b	0.57976407
159	0xbe5a0e48	-0.2129451
160	0x3ddb073c	0.10694739
161	0xbbe68749	-0.00703517
162	0x3e53355c	0.20625824
163	0x3e8ae325	0.27126423
164	0x3ee79cb6	0.45236748
165	0xbe22fae5	-0.15916021
166	0x3e9ba37c	0.30398166
167	0xbf06f9e1	-0.52725035
168	0x3daa9d8a	0.083308294
169	0x3ef2de7f	0.47435376
170	0xbdc6de7c	-0.09710404
171	0xbf14e638	-0.58163786
172	0xbe464c45	-0.19365032
173	0x3e8a027d	0.26955023
174	0xbe93d2f1	-0.28871873
175	0x3f05dc99	0.5228973
176	0xbea9dda9	-0.33176926
177	0xbf183fd6	-0.59472406
178	0x3e59c584	0.21266752
179	0x3f3ef72c	0.74595904
180	0x3e3c52d7	0.18390976
181	0xbe3e76fa	-0.18600073
182	0xbf29dd0d	-0.6635292
183	0x3d0d0c6f	0.034435686
184	0xbed1554a	-0.40885383
185	0x3e152c24	0.1456762
186	0xbe7867cd	-0.24258347
187	0x3edc0a2f	0.4297652
188	0xbeacec9d	-0.33774272
189	0x3ef03720	0.46917057
190	0x3e784ed8	0.24248827
191	0x3e3b8f59	0.18316402
192	0x3e6712ef	0.22565816
193	0xbd76e449	-0.060276303
194	0x3e64cec5	0.22344501
195	0xbf0d8aaa	-0.5528971
196	0x3e3e3624	0.1857534
197	0x3e24dbea	0.16099516
198	0xbaacdf73	-0.0013189152
199	0xbe590865	-0.21194609
200	0xbe942f15	-0.2894217
201	0xbdc7a879	-0.097489305
202	0xbd1a1380	-0.037616253
203	0xbf02b2cb	-0.51054066
204	0xbddecc99	-0.10878868
205	0x3ef77bd4	0.4833666
206	0x3d927d80	0.071528435
207	0x3eaaf379	0.3338888
208	0x3f40502b	0.75122327
209	0xbe010d72	-0.12602785
210	0xbf404a91	-0.7511378
211	0x3ebd0649	0.36918858
212	0x3ec4a714	0.3840872
213	0xbd5eff67	-0.05444279
214	0x3d467a68	0.04845658
215	0xbf08916e	-0.5334691
216	0x3f4390db	0.76392907
217	0xbdc53287	-0.09628778
218	0xbe78c32d	-0.24293204
219	0xbe354015	-0.17700227
220	0x3ea185c3	0.31547365
221	0xbe0ee938	-0.13956153
222	0xbead4169	-0.33838966
223	0x3ef0c2e1	0.4702368
224	0x3e6139f3	0.21994762
225	0xbeb90b05	-0.3614122
226	0xbcbd8aa7	-0.023137404
227	0x3d941152	0.07229866
228	0xbdc116e7	-0.094281964
229	0xbf01de74	-0.5073006
230	0xbd804307	-0.062627845
231	0x3f5f94b7	0.87336296
232	0xbeb2fae0	-0.34957027
233	0xbe139311	-0.1441157
234	0xbf748e6c	-0.9552982
235	0x3ec26087	0.3796427
236	0xbeb33200	-0.34999084
237	0xbf14de0f	-0.58151335
238	0x3f3427f1	0.70373446
239	0xbdb64249	-0.08899362
240	0xbe3902e9	-0.18067516
241	0x3da16fa6	0.078826234
242	0x3f579500	0.8421173
243	0xbdc54d8f	-0.09633934
244	0xbec784a1	-0.38968375
245	0xbe1f90d6	-0.15582594
246	0xbd69ba77	-0.057062592
247	0xbef1d1ef	-0.4723048
248	0x3e898d68	0.26865697
249	0xbc900e37	-0.017584903
250	0x3efec3bf	0.49758717
251	0xbf80278f	-1.0012072
252	0x3f1935bc	0.5984762
253	0x3e65431c	0.22388881
254	0xbe2cffdf	-0.16894482
255	0xbef562d9	-0.47926977

network_body._body_endoder.seq_layers.0.bias f4 [128]
0	0xbce4014e	-0.027832653
1	0x3ba514da	0.005037886
2	0x3928351c	0.00016041513
3	0xbc6b9293	-0.014378208
4	0xbb3d644c	-0.0028898893
5	0xbcf638b8	-0.030056342
6	0xbd0ef959	-0.034905765
7	0xbd59253c	-0.053014025
8	0x3cfb1082	0.03064752
9	0xbc29f536	-0.010373404
10	0xbbc757fc	-0.0060834866
11	0xbcf2c42a	-0.029634554
12	0xbd055724	-0.032553807
13	0xbda07005	-0.07833866
14	0xbb3e7f0b	-0.0029067423
15	0x3cdabdd3	0.026701843
16	0xbbbbf46d	-0.005735925
17	0x3da9a373	0.082831286
18	0xbe27a7e8	-0.16372645
19	0xbc34c2f8	-0.011032812
20	0xbd0748c7	-0.03302839
21	0x3b97ffe3	0.0046386584
22	0x3c50a683	0.012735012
23	0xbdbdb507	-0.09263044
24	0x3ca2a1b9	0.019852506
25	0xbd284a02	-0.041086204
26	0xbd30a93e	-0.043130152
27	0x3da93142	0.08261348
28	0xbdcf6196	-0.10126035
29	0x3cb15c6f	0.021650521
30	0x3b582412	0.0032980484
31	0xbbbb3dce	-0.005714155
32	0xbd820a96	-0.06349675
33	0xbd436039	-0.047699187
34	0xbd70cfea	-0.058792032
35	0xbb849c69	-0.004046966
36	0xbd0d6eab	-0.03452937
37	0xbcef3d3a	-0.029204
38	0x3cfe30c1	0.031029107
39	0x3cb4d6f5	0.022075156
40	0xbd630292	-0.055422373
41	0x3d2c9562	0.04213465
42	0x3d538e09	0.051649127
43	0xbd39cbb9	-0.0453603
44	0xbd99410b	-0.07483109
45	0x3cdc613f	0.02690184
46	0xbca7f076	-0.020500403
47	0x3a919f9a	0.0011110187
48	0x3cef6bbf	0.029226182
49	0xbcc1a893	-0.023639953
50	0xbb63c10f	-0.0034752523
51	0xbc312bf7	-0.010813705
52	0x3d5642d8	0.05230984
53	0x3d5a58f5	0.053307492
54	0xbce6bc50	-0.028165966
55	0xbd29a4fc	-0.041417107
56	0xbd52eea7	-0.051497128
57	0x3d6bba64	0.057550803
58	0x3b8ad2ab	0.0042365394
59	0x3d823a8c	0.06358823
60	0x3c69cc49	0.014269897
61	0x3d7f126d	0.06227343
62	0xbcaf6611	-0.021410974
63	0x3bb3d148	0.0054875948
64	0x3d925ace	0.07146226
65	0xbdf8621e	-0.12128089
66	0xbc35f40c	-0.011105549
67	0xbd305d5d	-0.04305779
68	0xbc9937df	-0.0187034
69	0xbd20d22b	-0.03926293
70	0xbd67e079	-0.05661056
71	0xbd3c9887	-0.0460439
72	0xbdf71b53	-0.120657586
73	0xbdd8a56d	-0.105784275
74	0x3cc18618	0.023623511
75	0xbddec5f2	-0.10877599
76	0x3dc8119d	0.097689845
77	0xbe21b81b	-0.15792887
78	0xbda0bcf1	-0.07848538
79	0xbd1295bb	-0.035787325
80	0xbc9b5126	-0.018959593
81	0x3d61ef4f	0.055159863
82	0xbe1a33c2	-0.15058807
83	0xbd65b512	-0.056080885
84	0x3c2d7dff	0.010589122
85	0xbca8f1a1	-0.02062303
86	0xbaa28e33	-0.0012401998
87	0xbcdc76e5	-0.026912162
88	0x3ccc4f3e	0.02494013
89	0xbba942db	-0.0051654405
90	0xbccb2b09	-0.024800794
91	0x3da0a9ac	0.07844862
92	0xbe092637	-0.13393484
93	0x3d9eeb8c	0.07759771
94	0x3cce877d	0.02521109
95	0xbd4ae34a	-0.049533166
96	0xbd3f0cea	-0.046643175
97	0xbd3c6355	-0.045993168
98	0xbb8f9303	-0.004381539
99	0x3dad66bf	0.08466863
100	0x3d98a8f9	0.07454104
101	0xbd41ea40	-0.04734254
102	0xbcc8ae60	-0.024497211
103	0xbc6ee5f6	-0.014581194
104	0x3c18a479	0.009316557
105	0xbd872b00	-0.065999985
106	0xbc7c2fc4	-0.015392248
107	0xbcf35e33	-0.029708004
108	0x3c54b78f	0.012983217
109	0xb89015b8	-6.8705005e-05
110	0xbb906a7f	-0.0044072266
111	0xbc5a4b1c	-0.0133235715
112	0xbd190f9e	-0.03736841
113	0x3d38bdcf	0.04510289
114	0x3d1a8344	0.03772284
115	0xbd7f5915	-0.062340815
116	0xbd160361	-0.036624316
117	0xbcbea7ff	-0.023273466
118	0xbd965bd3	-0.07341733
119	0xbc8c307a	-0.01711296
120	0xbd04c08d	-0.032410193
121	0xbbc97c1c	-0.006148828
122	0x3d888d07	0.06667524
123	0x3c11f379	0.008908146
124	0x3ccb186a	0.024791915
125	0xbce0076e	-0.027347293
126	0xbe2cf4d7	-0.16890274
127	0x3a43d559	0.0007470451

network_body._body_endoder.seq_layers.2.weight f4 [128, 128]
0	0x3df267b8	0.11836189
1	0x3a203082	0.0006110744
2	0xbd83890d	-0.06422625
3	0xbe27ba60	-0.1637969
4	0xbdaf530a	-0.0856076
5	0xbd0b26ee	-0.033972673
6	0x3d307ac3	0.043085825
7	0x3e0ec6da	0.13943043
8	0xbc8d0351	-0.017213495
9	0xbd922e7f	-0.07137775
10	0xbbca8176	-0.0061799837
11	0xbd11a9f7	-0.03556248
12	0xbe1b1b7e	-0.15147206
13	0xbd56fbe8	-0.05248633
14	0xbcebd92d	-0.02879008
15	0xbe421b45	-0.18955715
16	0x3d227785	0.039664764
17	0xbd9e8b85	-0.07741455
18	0x3d5803d9	0.052738044
19	0xbd0ea72c	-0.034827396
20	0x3e2fd924	0.17172676
21	0x3ca89127	0.020577027
22	0x3dd468b6	0.103715345
23	0x3d1a8c05	0.03773119
24	0x3db7786a	0.08958514
25	0x3d6c2cf2	0.05766005
26	0x3e12f165	0.14349897
27	0xbbc6b22b	-0.0060637197
28	0x3c60c713	0.013719338
29	0x3d8a29ce	0.06746255
30	0xbc129cbc	-0.008948501
31	0xbda710d2	-0.08157505
32	0x3d99b634	0.075054556
33	0x3e0ce265	0.13758238
34	0x3b857b25	0.004073518
35	0xbde0e9b6	-0.10982077
36	0xbde2c09f	-0.11071896
37	0x3d813230	0.06308401
38	0xbe101fd3	-0.1407464
39	0x39b96049	0.00035357688
40	0xbd4d5d96	-0.05013808
41	0x3b6ec7a3	0.003643491
42	0x3e5770fb	0.21039192
43	0xbccc5c2f	-0.0249463
44	0x3d5367b7	0.051612582
45	0x3c326c08	0.0108900145
46	0xbd66e1ef	-0.05636781
47	0xbdb59ccf	-0.088677995
48	0x3a8c2563	0.0010692294
49	0xbdbac753	-0.09120049
50	0x3e158538	0.146016
51	0xbd6586bc	-0.056036696
52	0x3cf63996	0.030056756
53	0x3df4f332	0.11960448
54	0x3d5460b0	0.05185002
55	0x3e499489	0.19685568
56	0x3a9a016a	0.0011749689
57	0x3d3386e1	0.043829802
58	0xbde56a51	-0.11201919
59	0x3d4789db	0.048715454
60	0xbcb1c8f0	-0.02170226
61	0x3d5bf587	0.05370095
62	0x3e3ad76c	0.1824624
63	0xbdcb3ed6	-0.099240944
64	0x3c818c2e	0.015813913
65	0xbcf17ddd	-0.029478962
66	0x3dbe0fc5	0.092803515
67	0xbdddd6aa	-0.108319595
68	0xbbd8253c	-0.0065962356
69	0x3e351c76	0.17686638
70	0xbd82a020	-0.06378198
71	0x3dedb7ca	0.116073206
72	0xbcc70da4	-0.024298497
73	0x3d972385	0.07379822
74	0x3d9af86c	0.07566914
75	0x3c66f72d	0.014097017
76	0xbcbd4762	-0.023105327
77	0x3b859a81	0.004077256
78	0x3c028d3a	0.007968241
79	0x3d24f58b	0.04027323
80	0xbda65730	-0.081220984
81	0x3e18e5e4	0.14931446
82	0x3d282c40	0.041057825
83	0x3e5421a1	0.20715953
84	0xbcdeeb83	-0.02721191
85	0x3e2bde5c	0.16784042
86	0xba467745	-0.0007570873
87	0xbd19a9df	-0.037515517
88	0x3d6b138a	0.05739168
89	0x3df00060	0.117188215
90	0xbd8cd964	-0.068774015
91	0x3d37edc1	0.044904474
92	0x3d04d7d7	0.032432403
93	0x3d901c7f	0.07036685
94	0x3e245d15	0.16051133
95	0x3e172714	0.14761001
96	0xbda26376	-0.07929127
97	0xbd1ccb45	-0.03827979
98	0x3dc2db29	0.09514458
99	0x3df73bba	0.12071939
100	0x3e2a0322	0.16602758
101	0x3e238b1d	0.15971036
102	0xbd2f6046	-0.042816423
103	0x3cd0fb0c	0.025510333
104	0x3dbc0de0	0.09182334
105	0x3df92796	0.121657535
106	0xbd331f43	-0.043730985
107	0xbc09e77a	-0.008417005
108	0xbd05a857	-0.032631245
109	0x3d906944	0.07051328
110	0x3daca71e	0.084303126
111	0x3dbc8b60	0.09206271
112	0x3cd56afa	0.026051987
113	0x3cf9f61c	0.030512862
114	0x3e3ccf50	0.18438458
115	0x3d3f78b2	0.046745963
116	0xbdc8d151	-0.09805549
117	0x3dd0e7ac	0.10200438
118	0x3db94d6f	0.090479724
119	0xbe4cfd5e	-0.20018527
120	0x3d3a28b1	0.045448963
121	0xbceb7c9c	-0.028745942
122	0x3e38f2aa	0.18061319
123	0xbdf7126a	-0.12064059
124	0x3dac1b74	0.08403674
125	0x3d90e72b	0.07075342
126	0xbe1acb41	-0.15116598
127	0xbe26ef8f	-0.16302322
128	0xbdc92e24	-0.09823254
129	0xbd3a46da	-0.045477726
130	0xbd5ea10e	-0.054352812
131	0xbceae64a	-0.028674264
132	0xbc58d3d4	-0.0132340975
133	0xbcc7e4a2	-0.024401013
134	0xbdabca66	-0.08388214
135	0x3de69665	0.11259154
136	0xbdbbc882	-0.09169103
137	0x3cbbcac0	0.022923827
138	0x3cd54d31	0.026037784
139	0xbd9e653d	-0.077341534
140	0x3da663ea	0.08124526
141	0x3e3be374	0.18348485
142	0x3d80b406	0.06284337
143	0x3d740ca4	0.059582368
144	0x3d90d658	0.07072133
145	0x3de7d0a5	0.11319093
146	0xbc1d7b91	-0.00961198
147	0x3caf7bfc	0.021421425
148	0x3da84e9f	0.08218121
149	0x3dd7fd66	0.10546379
150	0x3dbd543e	0.092445835
151	0x3cede5b4	0.029040195
152	0xbcae86bb	-0.021304479
153	0x3d0e8614	0.034795836
154	0xbcc527b6	-0.024066787
155	0x3eab30ba	0.33435613
156	0xbd52c4c1	-0.05145717
157	0xbdbf6aef	-0.09346568
158	0xbdcc81df	-0.099857084
159	0x3c3d46de	0.011552541
160	0xbe562838	-0.2091378
161	0xbbbaff39	-0.0057066944
162	0xbe13f4ab	-0.14448802
163	0xbda2dfd5	-0.07952849
164	0x3d9cc4b5	0.076547064
165	0xbe1e7e02	-0.15477756
166	0xbdde7a16	-0.1086313
167	0xbccaf745	-0.02477611
168	0xbdd40136	-0.103517935
169	0x3c0d078d	0.008607757
170	0x3ddb2aa3	0.10701492
171	0xbd983d4e	-0.07433568
172	0x3cba01e1	0.022705974
173	0x3e3e8e79	0.18609037
174	0x3e6e6ff2	0.23284891
175	0x3d16a072	0.036774106
176	0xbe20277c	-0.15640062
177	0x3d66f595	0.05638655
178	0x3c3e5956	0.011617979
179	0x3bf43bb4	0.007453406
180	0xbd3585cb	-0.044317048
181	0x3e1317f9	0.14364614
182	0x3cd4167a	0.025889624
183	0x3c06be33	0.008224058
184	0x3d22861d	0.03967868
185	0xb87fab9f	-6.0956572e-05
186	0xbd767885	-0.06017353
187	0xbd327816	-0.043571554
188	0xbda17164	-0.07882956
189	0xbdaa0cfe	-0.08303259
190	0x3d98f78a	0.07469089
191	0x3da10170	0.07861602
192	0xbdc932fb	-0.09824177
193	0xbdfc43be	-0.12317608
194	0xbca9e503	-0.020739084
195	0xbb1b95dd	-0.0023740449
196	0xbddd97a7	-0.10819941
197	0xbd9f3309	-0.07773406
198	0xbd68a180	-0.056794643
199	0x3ce780dd	0.028259689
200	0x3d2cb176	0.042161427
201	0x3d1570a9	0.036484394
202	0xbd4b7da8	-0.049680382
203	0xbd512626	-0.05106177
204	0xbdbf4d10	-0.093408704
205	0xbe360796	-0.17776331
206	0xbe2d2272	-0.16907671
207	0x3d5ee66b	0.054418962
208	0x3bebe576	0.0071989847
209	0xbd3e7ebd	-0.046507586
210	0xbd7ac218	-0.06122026
211	0x3d1bb111	0.03801066
212	0xbb5b57ff	-0.0033469198
213	0x3d93c8d9	0.07216043
214	0x3d221613	0.039571833
215	0x3e059816	0.13046297
216	0xbe2e50fd	-0.17023082
217	0x3cf78723	0.030215805
218	0xbe08aeac	-0.13347882
219	0x3c1b7c4b	0.009490083
220	0xbd01628c	-0.031588122
221	0xbe1a3961	-0.15060951
222	0xbd287e55	-0.041136105
223	0xbe1bb83b	-0.15206997
224	0x3d0736f6	0.0330114
225	0xbd377169	-0.04478589
226	0x3d2166c3	0.03940464
227	0xbe12aa9f	-0.143229
228	0xbd98168b	-0.07426175
229	0x3c39b745	0.011335199
230	0xbd50ddfc	-0.05099295
231	0xbd56047e	-0.052250378
232	0x3de165d1	0.11005748
233	0x3e3f57e3	0.1868587
234	0xbe187cfc	-0.14891428
235	0xbb4495b8	-0.0029996466
236	0xbd132e34	-0.035932735
237	0xbde7fd2c	-0.113275856
238	0x3dd11ce8	0.102105916
239	0x3d1c2c26	0.03812804
240	0x3c4c7b22	0.012480529
241	0xbc5ac12c	-0.01335172
242	0x3dffb07f	0.12484836
243	0xbcadd44e	-0.021219399
244	0x3c48629f	0.012230544
245	0x3c0a83fe	0.008454321
246	0xbcee8c4d	-0.029119635
247	0x3dcf3e73	0.10119333
248	0xbdb475da	-0.08811541
249	0xbe351cd3	-0.17686777
250	0x3c78e306	0.015190845
251	0xbe294a3e	-0.16532227
252	0xbda285e6	-0.07935695
253	0xbe298004	-0.1655274
254	0x3da1d2c3	0.07901528
255	0xbdff5306	-0.12467007

network_body._body_endoder.seq_layers.2.bias f4 [128]
0	0xbce2527e	-0.027627226
1	0x3a30d3c9	0.00067454256
2	0x3a918ea2	0.001110513
3	0xbbc4e54d	-0.00600878
4	0xbcd07e4c	-0.025450848
5	0xbcc070a1	-0.023491206
6	0xbd6ec6b4	-0.058294967
7	0x3ca5d234	0.020241834
8	0xbd5816db	-0.05275617
9	0x3c1d7548	0.009610482
10	0xbd819b72	-0.06328477
11	0x3d0946ef	0.033514913
12	0x3d6c467e	0.057684414
13	0xbc36d287	-0.011158592
14	0xbca3979c	-0.019969754
15	0x3ceb5d51	0.02873102
16	0x3d71c378	0.059024304
17	0xbd18cceb	-0.0373048
18	0xbc463082	-0.012096526
19	0xbc8ef4ef	-0.017450778
20	0xbd59e5ea	-0.05319778
21	0x39dcdae1	0.00042124747
22	0x3b85728e	0.004072494
23	0xbd2077df	-0.039176818
24	0xb88d9dbc	-6.752784e-05
25	0x3d9a1a4b	0.07524546
26	0xbc1ac0a2	-0.009445341
27	0xbc02bf10	-0.007980123
28	0x3b631ca5	0.0034654525
29	0x3d753dfc	0.059873566
30	0x39f73770	0.00047152815
31	0xbd38ffb1	-0.04516572
32	0xbd84e098	-0.0648815
33	0xbd9969f4	-0.07490912
34	0xbd257cdd	-0.040402282
35	0x3d00046d	0.03125422
36	0xbd50f69b	-0.05101643
37	0xbc678701	-0.0141313085
38	0x3d452724	0.04813303
39	0x3c9bc57a	0.019015063
40	0x3cc14577	0.023592694
41	0xbd756532	-0.05991096
42	0x3ce7e411	0.028306993
43	0x3d42e17b	0.047578316
44	0x3c200e54	0.009769041
45	0x3d9b8a47	0.07594734
46	0x3c852cbd	0.016256684
47	0xbc0b5374	-0.0085037835
48	0xbd5f92d0	-0.05458337
49	0x3d6a4b3c	0.057200655
50	0xbc406672	-0.011743175
51	0xbc62e0a9	-0.0138475085
52	0xbced0ede	-0.028937753
53	0x3d81c854	0.06337038
54	0xbd2cc123	-0.042176377
55	0xbd49e5a7	-0.04929128
56	0xbce8d7ab	-0.028423151
57	0xbd0141f9	-0.031557057
58	0x3c1c32e4	0.009533618
59	0xbd457be0	-0.04821384
60	0xbd31e46c	-0.04343073
61	0xbd07e21a	-0.03317461
62	0xbd6eeb45	-0.05832984
63	0xbb544813	-0.0032391592
64	0x3c831758	0.016002342
65	0x3c89ea17	0.016835256
66	0xbd1cbc5c	-0.03826557
67	0xbdc828c1	-0.09773398
68	0xbd25d67a	-0.040487744
69	0x3c34c353	0.011032897
70	0xbd868ab1	-0.06569422
71	0xbd120af3	-0.035654973
72	0x3c26d40d	0.010182393
73	0xbd146d7f	-0.036237236
74	0xbd811a20	-0.06303811
75	0xbc4e884b	-0.012605737
76	0xbc6eaedf	-0.01456806
77	0xbd107d86	-0.03527596
78	0xbd3300b7	-0.043701854
79	0xbd39d534	-0.045369342
80	0xbba47cf0	-0.0050197765
81	0xbc02fdc5	-0.007995074
82	0xbd4b9af6	-0.04970833
83	0x3d2bae87	0.04191449
84	0x3d5da1f3	0.054109525
85	0x3a52c1da	0.00080397504
86	0xbd309d0b	-0.043118518
87	0xbd06556c	-0.03279631
88	0x3c23ab10	0.009989515
89	0xbd275e64	-0.040861502
90	0x3c88c603	0.016695982
91	0xbd1c6af4	-0.038187936
92	0x3da06cb3	0.07833233
93	0xbc37fa01	-0.011229039
94	0xbd10b949	-0.03533295
95	0xbcd94c2b	-0.026525578
96	0xbc1a50dd	-0.009418693
97	0xbc166484	-0.009179238
98	0x3cca8f27	0.024726463
99	0x3ba71cbf	0.0050998623
100	0xb9dc1812	-0.00041979604
101	0x3ca5db93	0.020246303
102	0x3d2893a5	0.04115643
103	0xbc514a1b	-0.012774016
104	0x3c5ee56a	0.013604501
105	0x3d001635	0.03127118
106	0xbc64f2a2	-0.013973864
107	0xbc12cf7f	-0.008960604
108	0x3da91d30	0.0825752
109	0x3cccb025	0.024986336
110	0xbc35c8ca	-0.011095235
111	0xbab9e376	-0.0014182169
112	0xbd625870	-0.05526012
113	0x3cc7f250	0.024407536
114	0xbcdf8ac4	-0.027287848
115	0x3c0711f6	0.008244028
116	0xbc998bdf	-0.018743454
117	0xbd177af5	-0.036982495
118	0xbd14fce2	-0.03637398
119	0x3d1c2f0c	0.038130805
120	0x3d28fec0	0.041258574
121	0xbc82798d	-0.0159271
122	0x3bfe9219	0.007768881
123	0xbd2bda34	-0.04195614
124	0x3d3d5870	0.04622692
125	0x3ca01c88	0.019544855
126	0xbcb65d26	-0.022261214
127	0xbd04e125	-0.032441277

action_model._continuous_distribution.log_sigma f4 [1, 2]
0	0xbf1378bf	-0.5760612
1	0xbeb5d5a0	-0.35514545

action_model._continuous_distribution.mu.weight f4 [2, 128]
0	0xbd94a025	-0.07257108
1	0xbdc361d7	-0.09540146
2	0xbdbf193a	-0.093309835
3	0x3c695eda	0.014243806
4	0xbc0f7ca5	-0.008757745
5	0xbd788092	-0.06066949
6	0xbd23dc7a	-0.040005185
7	0x3b95b2e3	0.004568444
8	0xbd2faaaa	-0.042887367
9	0xba6cc972	-0.0009032703
10	0xbdb8f2c1	-0.09030677
11	0xbb3f69da	-0.002920738
12	0xbdf93007	-0.121673636
13	0xbdab4dc4	-0.08364442
14	0xbc93792e	-0.018002119
15	0x3d25a4d4	0.040440395
16	0x3d6197f3	0.05507655
17	0xbcfc7150	-0.03081575
18	0xbda103ec	-0.07862076
19	0xbde001e2	-0.10937859
20	0xbcedd7b6	-0.029033523
21	0xbd940450	-0.07227385
22	0xbdc7bb14	-0.09752479
23	0xbd8c8185	-0.068606414
24	0xbd97fb21	-0.07420946
25	0x3d8dd812	0.06925978
26	0xbd9cd9bc	-0.07658717
27	0xbd85f554	-0.06540933
28	0x3cef10df	0.02918285
29	0x3d6d1fb3	0.05789156
30	0x3c762571	0.015023575
31	0xbd169b51	-0.036769215
32	0xbc6df648	-0.01452405
33	0xbd20bf15	-0.03924473
34	0xbcf1cd8b	-0.029516956
35	0xbdd10866	-0.1020668
36	0xbd0b96d1	-0.034079377
37	0xbd6dc13b	-0.058045607
38	0x3d8a3d84	0.067500144
39	0xbd8f23ca	-0.06989248
40	0xbd8ebb9f	-0.0696938
41	0xbd13a08c	-0.03604178
42	0x3c7b193b	0.01532584
43	0x3ca7f293	0.02050141
44	0x3cde8092	0.027160916
45	0x3daae0e2	0.08343674
46	0xbdbe0024	-0.092773706
47	0xbdc556da	-0.09635706
48	0xbd9e216f	-0.07721221
49	0x3d9ac874	0.07557765
50	0x3c85b7a7	0.016322924
51	0xbd920765	-0.07130317
52	0xbd58d225	-0.052934784
53	0x3d3f090e	0.046639495
54	0xbd8d300b	-0.06893929
55	0xbd03b31a	-0.032153226
56	0xbda92661	-0.08259273
57	0xbd0e57a6	-0.034751557
58	0xbda1211c	-0.07867643
59	0xbd6f40f2	-0.058411546
60	0xbd16889a	-0.036751367
61	0xbd83f27e	-0.06442736
62	0xbd3d99cc	-0.04628925
63	0xbda5b7ef	-0.08091723
64	0xbdf61d32	-0.12017287
65	0x3d1eebf2	0.038799234
66	0xbd00201f	-0.031280633
67	0xbcdf9f73	-0.027297711
68	0xbd9f7a93	-0.07787051
69	0xbd87ab8b	-0.06624516
70	0xbd248231	-0.040163223
71	0xbd85d8a2	-0.0653546
72	0xbdb1a4f8	-0.086740434
73	0xbd063d39	-0.03277323
74	0xbd4f38df	-0.050591346
75	0xbba527a7	-0.0050401273
76	0xbdc447f3	-0.09584036
77	0xbd50006f	-0.050781664
78	0xbd17ed87	-0.037091758
79	0xbd22b193	-0.03972013
80	0xbd57d887	-0.05269673
81	0xbc673d18	-0.014113687
82	0xbd355092	-0.04426629
83	0xbcca1cc9	-0.024671929
84	0x3d1f6d40	0.03892255
85	0xbd02e693	-0.031958174
86	0xbd08b11c	-0.03337203
87	0xbd56987e	-0.05239152
88	0xbda92600	-0.08259201
89	0xbdad5390	-0.08463204
90	0xbdc42e13	-0.095791005
91	0x3be82eab	0.0070856414
92	0x3d5f507f	0.054520126
93	0xbdc9e843	-0.098587535
94	0xbd98d1b0	-0.0746187
95	0xbd844ebf	-0.06460332
96	0xbdb574b9	-0.08860154
97	0xbd8f7ec6	-0.07006602
98	0x3c6e7170	0.014553413
99	0xba0eab1c	-0.00054423674
100	0x3c9fbbbf	0.019498704
101	0xbdb6705b	-0.08908149
102	0x3d39c61b	0.045354944
103	0xbd8a9f77	-0.06768697
104	0xbd94571b	-0.072431765
105	0x3d23a617	0.039953317
106	0x3cd9c6f7	0.026584132
107	0x3c76945c	0.01505002
108	0x3da5d2f4	0.08096877
109	0x3d556729	0.052100334
110	0xbdacec9b	-0.084435664
111	0x3d1b1343	0.037860166
112	0xbd31d809	-0.043418918
113	0xbdcbf9e7	-0.099597745
114	0xbd889e77	-0.0667085
115	0x3a7ea304	0.0009713622
116	0xbd9f2971	-0.07771576
117	0xbd8fd37e	-0.07022761
118	0xbcfe02e8	-0.031007245
119	0x3ce548c7	0.027988805
120	0x3ca32bcc	0.019918345
121	0xbde630f1	-0.112398036
122	0x3d44500e	0.04792791
123	0xbcdeafaf	-0.027183382
124	0xbddbef70	-0.107390285
125	0xbdd75d28	-0.10515815
126	0xbd2c1cfd	-0.042019833
127	0xbd34f49b	-0.044178586
128	0x3d71fd0b	0.05907921
129	0x3c5f5031	0.013629959
130	0x3dc15498	0.09439963
131	0x3d9ea474	0.07746211
132	0x3cfd3148	0.030907288
133	0xbb321039	-0.0027170314
134	0x3c9b4ed8	0.018958494
135	0xbd9ec005	-0.077514686
136	0x3cea1f18	0.02857928
137	0xbdc41d6e	-0.09575926
138	0x3ba37d97	0.0049893367
139	0xbdb509cf	-0.088397615
140	0x3bd4a8de	0.006489857
141	0xba951aac	-0.0011375747
142	0x3cc5f74f	0.024165777
143	0x3dc9d932	0.0985588
144	0xbc12c9f9	-0.008959287
145	0x3d698470	0.057011068
146	0x3d06746a	0.032825865
147	0x3cc3a431	0.023882004
148	0x3c552c13	0.013010996
149	0x3d3564f0	0.044285715
150	0x3d5ed602	0.054403313
151	0x3c9bb2c2	0.019006137
152	0x3c25325b	0.010082806
153	0xbd132b20	-0.0359298
154	0xbbf2068f	-0.0073860358
155	0x3d9b8949	0.075945444
156	0x3d7c5c56	0.061611496
157	0x3cc39d87	0.023878826
158	0xbcf78070	-0.030212611
159	0x3b112cbf	0.0022151915
160	0x3d37160d	0.044698764
161	0x3d3df834	0.046379283
162	0x3c5dad2b	0.013530056
163	0x3d0081dd	0.031373847
164	0x3c5706b7	0.01312416
165	0x3d8834ef	0.06650721
166	0x3d2566e3	0.040381324
167	0xbd28eb13	-0.04123981
168	0x3e0fa115	0.14026292
169	0x3d49e988	0.04929498
170	0xbdd1df56	-0.10247676
171	0xbe250717	-0.16115986
172	0x3da71749	0.08158738
173	0xbbd34310	-0.0064472035
174	0x3c1bc640	0.009507716
175	0xbd06bac3	-0.032892954
176	0x3cf96b57	0.030446691
177	0x3ce17cf0	0.027525395
178	0x3db9f894	0.09080616
179	0x3ac80753	0.0015260972
180	0x3d44c186	0.04803612
181	0xbd5d42b8	-0.054018706
182	0x3d20e974	0.03928514
183	0x3c5aed73	0.013362276
184	0x3d4af57d	0.049550522
185	0xbbcb8c24	-0.0062117744
186	0x3da8faf5	0.08250991
187	0x3d397373	0.045276117
188	0xba02254d	-0.00049646647
189	0x3d24564b	0.040121358
190	0x3c38fed1	0.011291222
191	0x3db7f18c	0.08981618
192	0x3b55cbd3	0.003262271
193	0x3cd931db	0.02651303
194	0x3cb76baa	0.022390205
195	0x3c9d910a	0.0192342
196	0x3d3876ae	0.045035057
197	0xbd2e57c5	-0.042564172
198	0x3cd46c08	0.02593042
199	0x3d1f1d49	0.038846288
200	0x3df733cf	0.120704286
201	0x3c890bab	0.016729197
202	0x3d80b4f4	0.06284514
203	0x3d7336f4	0.05937858
204	0xbd80b85c	-0.06285164
205	0x3bca2ade	0.006169661
206	0x3cfde9c7	0.030995263
207	0x3ca96d10	0.020681888
208	0x3d7af82e	0.06127184
209	0xbc337ca4	-0.01095501
210	0x3d061c04	0.03274156
211	0x3dbb04ba	0.09131761
212	0xbdf58e70	-0.119900584
213	0xbd1fc0ac	-0.039002106
214	0x3d107253	0.035265278
215	0x3d7bc3f7	0.061466184
216	0x3d57bb90	0.052669108
217	0x3d71052d	0.058842827
218	0x3bc5ee06	0.0060403375
219	0x3c80e203	0.01573277
220	0xbca75dd8	-0.02043049
221	0x3d89eb70	0.06734359
222	0x3c62cd0f	0.013842835
223	0x3d4e256e	0.050328664
224	0x3b9d64e1	0.0048032855
225	0x3db3a52b	0.08771738
226	0x3bd69daa	0.0065495567
227	0x3c438918	0.011934541
228	0x3d7e17b8	0.06203434
229	0xbc0d6d83	-0.008632067
230	0x3a84033a	0.0010071762
231	0x3c4c0723	0.012452873
232	0x3deab018	0.114593685
233	0x3dc25c68	0.09490281
234	0x3d3a4562	0.045476325
235	0x3d938128	0.07202369
236	0xbcb832a6	-0.022485089
237	0x3d3982ff	0.045290943
238	0x3d0a97a8	0.033836037
239	0x3cec6c19	0.028860139
240	0xbbb8e2c8	-0.005642269
241	0xbaea3c7c	-0.0017870809
242	0x3d7ce151	0.061738316
243	0xbd70f466	-0.058826827
244	0x3cbda32f	0.023149101
245	0x3d543f8c	0.051818416
246	0x3d3f6e3f	0.046736
247	0xbd8c497c	-0.068499535
248	0xbdd1e927	-0.102495484
249	0xbd4ca1ef	-0.04995912
250	0x3da4874c	0.08033618
251	0x381ce38e	3.7405225e-05
252	0x3acaf15c	0.0015483308
253	0x3d90583b	0.070480786
254	0x3cda0452	0.026613388
255	0xbbf822c7	-0.007572505

action_model._continuous_distribution.mu.bias f4 [2]
0	0x3dd657a6	0.10465936
1	0xbcba01ad	-0.022705877

exp_avg f4 [128, 6]
0	0xbb79c683	-0.0038112707
1	0xae8ede0e	-6.496857e-11
2	0xba75d7f7	-0.00093781896
3	0xbb059ad3	-0.0020386472
4	0x00000000	0.0
5	0xb7302c87	-1.0500785e-05
6	0x39b34e58	0.0003419991
7	0xac00e738	-1.8318246e-12
8	0x3a8fb3ab	0.0010963579
9	0xba83616c	-0.0010023541
10	0x00000000	0.0
11	0x3b22c4fd	0.0024836652
12	0xbc9caf65	-0.019126603
13	0x2f8584e3	2.428698e-10
14	0xbc035a5c	-0.008017149
15	0xbcf3a061	-0.02973956
16	0x00000000	0.0
17	0xbc0c27c2	-0.008554401
18	0x3b8654a3	0.004099445
19	0xae561ad7	-4.8681805e-11
20	0x3b3f33a5	0.002917507
21	0x3b0fc242	0.0021935855
22	0x00000000	0.0
23	0x3b8a5af0	0.0042222664
24	0xbd170a89	-0.03687528
25	0x2feda25e	4.3225418e-10
26	0xbc9250a8	-0.017860726
27	0xbd4b8dd6	-0.049695812
28	0x00000000	0.0
29	0xbc9b2671	-0.018939229
30	0xbc167876	-0.009183994
31	0x2e823f77	5.922989e-11
32	0xbb569058	-0.0032739844
33	0xbc8574a0	-0.016290963
34	0x00000000	0.0
35	0xbb3640cb	-0.0027809616
36	0xba5426c7	-0.00080929365
37	0x2d4b7138	1.1564354e-11
38	0xb98dfcbc	-0.00027081918
39	0xbac3e091	-0.0014944245
40	0x00000000	0.0
41	0xb8ff461f	-0.000121724086
42	0xb9e01f90	-0.00042748125
43	0x2cbf6cde	5.440633e-12
44	0xb84d1020	-4.8890826e-05
45	0xba0af93b	-0.00053014205
46	0x00000000	0.0
47	0x38b56788	8.650037e-05
48	0xbcccec0f	-0.025014905
49	0x2fabaeea	3.1229003e-10
50	0xbc193bdf	-0.009352653
51	0xbd2384ad	-0.03992145
52	0x00000000	0.0
53	0xbc0a4d9a	-0.008441353
54	0x3bb2717f	0.0054456587
55	0x2e8dbc7f	6.445421e-11
56	0x3a8ad697	0.0010592517
57	0x3bd69b2d	0.00654926
58	0x00000000	0.0
59	0xba686ca6	-0.00088662875
60	0xba96a6b5	-0.0011493774
61	0x2d24d88a	9.370402e-12
62	0xb9cda2a3	-0.0003922182
63	0xbb245c21	-0.0025079327
64	0x00000000	0.0
65	0xb934c3b4	-0.00017239043
66	0xba8d5d24	-0.0010785204
67	0x2ca4136d	4.663317e-12
68	0xb9dd8abc	-0.0004225577
69	0xbb164f23	-0.0022935353
70	0x00000000	0.0
71	0xb890a3e6	-6.8969835e-05
72	0x3cfeb437	0.031091793
73	0xaf37c2e0	-1.6712987e-10
74	0x3c7be15c	0.015373554
75	0x3d3de0ed	0.046357084
76	0x00000000	0.0
77	0x3c6dd9ea	0.014517287
78	0xbc14088c	-0.009035241
79	0x2e853172	6.056923e-11
80	0xbbf9f83b	-0.0076284683
81	0xbc4cd9b3	-0.012503075
82	0x00000000	0.0
83	0xbc1566f8	-0.009118788
84	0x3cb34a33	0.021885967
85	0xae6b5f9d	-5.3517735e-11
86	0x3c4d1716	0.012517711
87	0x3d06d7cf	0.032920655
88	0x00000000	0.0
89	0x3c4a8de2	0.012362929
90	0xbc4af274	-0.012386907
91	0x2f09875a	1.2508164e-10
92	0xbbbdec5b	-0.005795998
93	0xbc4b7008	-0.012416847
94	0x00000000	0.0
95	0xbbf4a524	-0.0074659754
96	0x3d093ca1	0.033505086
97	0xaea1e0b9	-7.361351e-11
98	0x3c87f7c5	0.016597638
99	0x3d45e2df	0.048312064
100	0x00000000	0.0
101	0x3c859593	0.016306674
102	0xb9acfd5f	-0.00032995173
103	0x2d42f84a	1.10827545e-11
104	0xb93cfdc9	-0.0001802362
105	0xba5d64d4	-0.00084455055
106	0x00000000	0.0
107	0xb8f7571d	-0.00011794104
108	0x3b9e0fa9	0.004823644
109	0xacd53b9e	-6.060443e-12
110	0x3abb5ac2	0.0014294016
111	0x3bf452dc	0.0074561667
112	0x00000000	0.0
113	0x3ac8c67e	0.0015317944
114	0x3b3bb911	0.0028644244
115	0xaf4a04af	-1.8373457e-10
116	0x3b436b3b	0.0029818553
117	0xba2872a4	-0.0006425774
118	0x00000000	0.0
119	0x3bacd684	0.0052745957
120	0xbc8574f7	-0.016291125
121	0x2f5bd632	1.9994031e-10
122	0xbbe489b9	-0.0069744256
123	0xbcc74b92	-0.024328027
124	0x00000000	0.0
125	0xbbdf5e20	-0.0068166405
126	0xbcf97001	-0.030448915
127	0x2fc43482	3.56895e-10
128	0xbc4ae1c1	-0.0123829255
129	0xbd231f7c	-0.039824948
130	0x00000000	0.0
131	0xbc67c19a	-0.014145279
132	0x3b4cb035	0.0031232957
133	0xaf68c508	-2.1170277e-10
134	0x3b79ff06	0.003814639
135	0x3c35438d	0.011063469
136	0x00000000	0.0
137	0x3b9b7884	0.004744591
138	0x3c07c395	0.0082863765
139	0xae9d2967	-7.146888e-11
140	0x3b7138f5	0.003680763
141	0x3c545ee7	0.01296208
142	0x00000000	0.0
143	0x3b74f7e6	0.0037379204
144	0xbc0fdcd8	-0.008780681
145	0x2f366106	1.6587273e-10
146	0xbaf1680e	-0.0018417852
147	0xbbd654cc	-0.0065408703
148	0x00000000	0.0
149	0xbb4cbc4d	-0.0031240166
150	0xbb42e747	-0.0029739903
151	0x2d124ed3	8.316642e-12
152	0xbba0ad0f	-0.0049034427
153	0xbb9e28a1	-0.0048266207
154	0x00000000	0.0
155	0xbbc77282	-0.0060866484
156	0xb6baa196	-5.562043e-06
157	0x2cc2e303	5.539015e-12
158	0xb9b7c875	-0.00035053832
159	0xb9780788	-0.00023653929
160	0x00000000	0.0
161	0x3931a08a	0.00016939841
162	0xbc31e423	-0.010857615
163	0x2f710728	2.1921365e-10
164	0xbc1a2723	-0.009408745
165	0xbc3f80e9	-0.011688449
166	0x00000000	0.0
167	0xbc586f33	-0.013210106
168	0x3851787d	4.9941696e-05
169	0x2c8879de	3.8788825e-12
170	0x35e814b1	1.7291369e-06
171	0xb985ec0e	-0.0002554361
172	0x00000000	0.0
173	0x39441244	0.00018698821
174	0x3968ca2b	0.00022200558
175	0x2b21be71	5.746298e-13
176	0xb9242eef	-0.00015657743
177	0xb8c5098d	-9.395471e-05
178	0x00000000	0.0
179	0xb7184f79	-9.07841e-06
180	0x3c0898a5	0.008337175
181	0xaf4a7c57	-1.8415967e-10
182	0x3bb623f1	0.005558484
183	0x3c5c7317	0.013455174
184	0x00000000	0.0
185	0x3be9ad43	0.00713125
186	0x3bd3f871	0.0064688255
187	0xaf31e792	-1.6180327e-10
188	0x3b9564a8	0.0045591183
189	0x3bc96957	0.0061465907
190	0x00000000	0.0
191	0x3bd3153d	0.006441741
192	0xba45b7a2	-0.0007542317
193	0x2d2ee381	9.941271e-12
194	0xb9ad4359	-0.0003304731
195	0xbaac6cd6	-0.0013154994
196	0x00000000	0.0
197	0xb9b0af4c	-0.00033699942
198	0x3b3df511	0.0028985182
199	0x2eb43365	8.194582e-11
200	0x3a1e81ba	0.00060465524
201	0x3b614bf7	0.0034377554
202	0x00000000	0.0
203	0xb8b2be04	-8.5230946e-05
204	0xbc4daa95	-0.012552877
205	0x2eecd87e	1.0770494e-10
206	0xbba37262	-0.0049880007
207	0xbc8aa9f9	-0.016926752
208	0x00000000	0.0
209	0xbbbff271	-0.0058577587
210	0xb94085dd	-0.00018360415
211	0x2ba079b0	1.1402459e-12
212	0xb8aa3824	-8.116689e-05
213	0xba132f4a	-0.00056146516
214	0x00000000	0.0
215	0xb89d6a88	-7.5061864e-05
216	0x3bc11421	0.005892292
217	0xad63c9d7	-1.29482735e-11
218	0x3b2df972	0.0026546386
219	0x3c0da32a	0.008644858
220	0x00000000	0.0
221	0x3b5eb87a	0.0033984468
222	0xba07a6ea	-0.00051747134
223	0x2d0c38c9	7.9706875e-12
224	0xb982d475	-0.00024953825
225	0xba9fd9fc	-0.0012195702
226	0x00000000	0.0
227	0xb8e2da2e	-0.00010817159
228	0xbc5d92d7	-0.013523779
229	0x2f014036	1.1755294e-10
230	0xbb95d295	-0.0045722225
231	0xbcbe1eff	-0.02320814
232	0x00000000	0.0
233	0xbb67d6e0	-0.0035375878
234	0xb9a25f79	-0.0003097018
235	0x2d28952f	9.58282e-12
236	0xb919b39e	-0.0001465813
237	0xba68739f	-0.00088673265
238	0x00000000	0.0
239	0xb96f5d04	-0.00022827467
240	0xbb5071bc	-0.0031806072
241	0xad45ae7d	-1.1236898e-11
242	0xbacbf0be	-0.0015559418
243	0xbb5892da	-0.0033046515
244	0x00000000	0.0
245	0xba8a2070	-0.0010538232
246	0x3c5be44c	0.013421129
247	0x2fbd1f51	3.440115e-10
248	0x3b05c720	0.0020412877
249	0x3c8cac2b	0.01717194
250	0x00000000	0.0
251	0xbb480400	-0.0030519962
252	0x3c240b67	0.010012484
253	0xadf307af	-2.7629314e-11
254	0xbb342699	-0.0027488826
255	0x3c1d3837	0.009595922

exp_avg_sq f4 [128, 6]
0	0x3a6741ab	0.0008821736
1	0x1efaeeb7	2.656851e-20
2	0x39408f68	0.0001836397
3	0x3b63a83a	0.0034737722
4	0x00000000	0.0
5	0x395c00c6	0.00020981123
6	0x3ab9f809	0.00141883
7	0x1f2ea4b1	3.6982163e-20
8	0x39367c50	0.00017403183
9	0x3b9bbd4b	0.00475279
10	0x00000000	0.0
11	0x398b8329	0.00026609868
12	0x3bb0c462	0.0053945044
13	0x1fdfc8b1	9.477619e-20
14	0x39f85a73	0.00047369636
15	0x3c8463f2	0.016160939
16	0x00000000	0.0
17	0x3a5a28fc	0.0008322147
18	0x3b27bb40	0.0025593787
19	0x1f9e7f15	6.712584e-20
20	0x3999581c	0.0002924808
21	0x3c11ca11	0.008898274
22	0x00000000	0.0
23	0x39eb3283	0.00044860327
24	0x3ca6c212	0.020356212
25	0x20c5d780	3.3515704e-19
26	0x3af3856c	0.0018579192
27	0x3d752c71	0.059856836
28	0x00000000	0.0
29	0x3b3ec3e5	0.0029108461
30	0x3a8c31c9	0.001069599
31	0x1ee2964b	2.399084e-20
32	0x38f31b09	0.000115921786
33	0x3b677df7	0.0035322884
34	0x00000000	0.0
35	0x39558ac2	0.00020364954
36	0x377622be	1.4670832e-05
37	0x1c01c985	4.294298e-22
38	0x3606df98	2.0097705e-06
39	0x385f2051	5.319744e-05
40	0x00000000	0.0
41	0x3648489a	2.9844582e-06
42	0x369349ba	4.3895243e-06
43	0x1c1c4fd4	5.1719246e-22
44	0x3642bbc6	2.9017551e-06
45	0x380cffef	3.3616958e-05
46	0x00000000	0.0
47	0x3600947e	1.915992e-06
48	0x3c025024	0.007953677
49	0x20526c40	1.7823509e-19
50	0x3a6a5215	0.0008938623
51	0x3cdb4779	0.02676748
52	0x00000000	0.0
53	0x3ab797e0	0.0014007054
54	0x3a15d35f	0.00057153957
55	0x1e957479	1.582416e-20
56	0x3900a5b8	0.00012268766
57	0x3af0581f	0.0018336809
58	0x00000000	0.0
59	0x3941419c	0.00018430356
60	0x3826c63f	3.9762115e-05
61	0x1cb90ea6	1.224606e-21
62	0x36b5ceaf	5.4182815e-06
63	0x3920a8b6	0.00015321639
64	0x00000000	0.0
65	0x37132781	8.7710805e-06
66	0x37bf376a	2.2794778e-05
67	0x1ca8520d	1.1138517e-21
68	0x3680025e	3.814973e-06
69	0x38cc80d9	9.751478e-05
70	0x00000000	0.0
71	0x36a6c161	4.969698e-06
72	0x3c5cfc8d	0.013487947
73	0x205425ac	1.7969563e-19
74	0x3a94c790	0.0011350978
75	0x3d18f40d	0.03734212
76	0x00000000	0.0
77	0x3b02889b	0.001991785
78	0x3b53feef	0.0032347997
79	0x1f0fff10	3.049241e-20
80	0x3970121f	0.00022894934
81	0x3bd9ccdd	0.006646736
82	0x00000000	0.0
83	0x39b8a5b5	0.00035218676
84	0x3beeb318	0.007284533
85	0x1fc396b9	8.283506e-20
86	0x3a10404d	0.00055027456
87	0x3c911a64	0.01771278
88	0x00000000	0.0
89	0x3a80920a	0.0009809148
90	0x3ad13eb4	0.0015964122
91	0x1f320745	3.769898e-20
92	0x39388462	0.00017596924
93	0x3b9e1804	0.00482464
94	0x00000000	0.0
95	0x396e092f	0.0002270087
96	0x3c1f9bf0	0.009741768
97	0x20072abc	1.1449084e-19
98	0x3a3e841f	0.00072676124
99	0x3cc6792e	0.024227705
100	0x00000000	0.0
101	0x3aafd083	0.0013413582
102	0x36d960be	6.4783662e-06
103	0x1c7aaaf8	8.2939033e-22
104	0x366e0fcb	3.5473956e-06
105	0x38a8b45f	8.044461e-05
106	0x00000000	0.0
107	0x36933651	4.3872647e-06
108	0x390dca44	0.00013522158
109	0x1d238518	2.1641678e-21
110	0x3734551d	1.0748653e-05
111	0x39bedd2c	0.0003640441
112	0x00000000	0.0
113	0x37f730cb	2.9467416e-05
114	0x3b291a21	0.0025802928
115	0x1fb1f8b0	7.5373835e-20
116	0x399489d2	0.00028331444
117	0x3c184efb	0.009296174
118	0x00000000	0.0
119	0x39e3ca17	0.00043447383
120	0x3b44968f	0.0029996966
121	0x1f82135c	5.508917e-20
122	0x399d1362	0.00029959815
123	0x3c1a9834	0.009435702
124	0x00000000	0.0
125	0x39f1bed7	0.0004610929
126	0x3c13b867	0.009016133
127	0x206076dc	1.9012865e-19
128	0x3a727f93	0.00092505774
129	0x3d010fdc	0.031509265
130	0x00000000	0.0
131	0x3ac31d98	0.0014886139
132	0x3bf842d8	0.007576328
133	0x202c7309	1.4607029e-19
134	0x3a6aeb03	0.0008961411
135	0x3cd982a3	0.02655155
136	0x00000000	0.0
137	0x3abdb4f9	0.001447349
138	0x3a5e2dd4	0.0008475457
139	0x1ee7774c	2.4507416e-20
140	0x38c7752c	9.5108844e-05
141	0x3b416535	0.0029509787
142	0x00000000	0.0
143	0x3932524c	0.00017006061
144	0x3a789e45	0.0009484033
145	0x1f8df172	6.011526e-20
146	0x3969b807	0.00022289167
147	0x3be5a5a2	0.0070082704
148	0x00000000	0.0
149	0x39c0e2f1	0.00036790178
150	0x3ab7e95a	0.0014031336
151	0x1e571f1b	1.1388438e-20
152	0x38c3f2d7	9.343557e-05
153	0x3b2cf8d8	0.002639344
154	0x00000000	0.0
155	0x39257fae	0.0001578319
156	0x381767bd	3.609782e-05
157	0x1e03e88d	6.983173e-21
158	0x37a54156	1.9699957e-05
159	0x398b4908	0.00026566559
160	0x00000000	0.0
161	0x37671773	1.3774133e-05
162	0x3bc57e43	0.0060270145
163	0x1fdb75e8	9.294517e-20
164	0x39fdcf83	0.0004841053
165	0x3c6b0887	0.014345295
166	0x00000000	0.0
167	0x3a3fce41	0.0007316806
168	0x374a4e94	1.2058434e-05
169	0x1bd25db2	3.4802135e-22
170	0x35ceabd0	1.53982e-06
171	0x38349f09	4.3063457e-05
172	0x00000000	0.0
173	0x36281abb	2.504951e-06
174	0x37ad91f8	2.0691179e-05
175	0x1c7465e2	8.086451e-22
176	0x364aca65	3.0218155e-06
177	0x38bdb942	9.046729e-05
178	0x00000000	0.0
179	0x36cbd0d8	6.074184e-06
180	0x3bad8d87	0.0052964124
181	0x1fe5c2f7	9.7307815e-20
182	0x3a0be30c	0.0005336262
183	0x3c8c25b1	0.017107816
184	0x00000000	0.0
185	0x3a6229f8	0.00086274697
186	0x3b5d21b3	0.003374201
187	0x1f9aa080	6.548706e-20
188	0x39b47259	0.0003441747
189	0x3c329f2c	0.010902207
190	0x00000000	0.0
191	0x3a0c9927	0.00053633976
192	0x373bc5e3	1.1192143e-05
193	0x1bba8007	3.0853855e-22
194	0x35a9c64d	1.2649194e-06
195	0x38276be1	3.9916373e-05
196	0x00000000	0.0
197	0x35f6b632	1.8381454e-06
198	0x394df642	0.00019642062
199	0x1dc076a8	5.0944665e-21
200	0x380e03ea	3.3859083e-05
201	0x3a343c92	0.0006875481
202	0x00000000	0.0
203	0x38609b1d	5.3550222e-05
204	0x3af52f21	0.0018706062
205	0x1f1d8cd0	3.336252e-20
206	0x393a05b1	0.00017740462
207	0x3bc15c2f	0.0059008817
208	0x00000000	0.0
209	0x39a35747	0.0003115481
210	0x37711eae	1.4371863e-05
211	0x1e76663f	1.30442756e-20
212	0x37e33a23	2.708758e-05
213	0x39cd3174	0.00039137492
214	0x00000000	0.0
215	0x37fe7850	3.0335184e-05
216	0x3a28f6cb	0.00064454664
217	0x1e2431c7	8.6923814e-21
218	0x38477116	4.7550617e-05
219	0x3ad521ec	0.001626072
220	0x00000000	0.0
221	0x38c16226	9.221239e-05
222	0x3729a724	1.01121e-05
223	0x1bd54eec	3.5288896e-22
224	0x35cfae23	1.5473382e-06
225	0x38377737	4.3741627e-05
226	0x00000000	0.0
227	0x3623634b	2.4346689e-06
228	0x3b405858	0.0029349532
229	0x1fa926a0	7.1638184e-20
230	0x39b5ae4b	0.0003465287
231	0x3c21e480	0.009881139
232	0x00000000	0.0
233	0x3a0ee9cf	0.00054517103
234	0x368b1bd1	4.145761e-06
235	0x1c6d3faa	7.8499006e-22
236	0x364bbfff	3.0361114e-06
237	0x389659ab	7.169259e-05
238	0x00000000	0.0
239	0x367bfbbe	3.7548448e-06
240	0x38e188e1	0.00010754332
241	0x1ef3a359	2.5796185e-20
242	0x388bf765	6.674117e-05
243	0x3a74907d	0.0009329392
244	0x00000000	0.0
245	0x38706ad9	5.731997e-05
246	0x3b878430	0.004135631
247	0x20034e60	1.1122064e-19
248	0x3a25b6e9	0.0006321506
249	0x3c717761	0.014737935
250	0x00000000	0.0
251	0x3a771ef6	0.0009426916
252	0x3b3d0491	0.0028841833
253	0x1ecf58e7	2.1953747e-20
254	0x3969a24b	0.0002228107
255	0x3ba7bde5	0.0051190727

exp_avg f4 [128]
0	0xb94ddf27	-0.00019633454
1	0x3874f358	5.8400765e-05
2	0xbbb3985b	-0.0054808087
3	0x3a2a3b48	0.0006493819
4	0xbc14fa6f	-0.009092911
5	0xbb3b5549	-0.002858477
6	0xb98db510	-0.00027028518
7	0xb89aa530	-7.374061e-05
8	0xbbeaa835	-0.007161165
9	0x3a89bbb0	0.0010508206
10	0xb9d6234b	-0.00040843556
11	0xb9cb565c	-0.0003878352
12	0x3c059493	0.008153099
13	0xbb092b58	-0.0020930376
14	0x3bbd2452	0.005772152
15	0xbb19103f	-0.002335563
16	0x3c0a49cf	0.008440449
17	0xb92a03b2	-0.0001621384
18	0x3ab1febe	0.0013579947
19	0x399f66ca	0.00030403427
20	0xbb920828	-0.0044565387
21	0xbbf3c12b	-0.007438799
22	0x3b1cb559	0.0023911803
23	0x3b21980d	0.002465728
24	0xbad519e7	-0.001625833
25	0xba51d8a8	-0.00080050016
26	0xb882b704	-6.2329724e-05
27	0xbb1278fe	-0.002234995
28	0xb7c84254	-2.3872744e-05
29	0x3818b912	3.6411984e-05
30	0x3b34f8f0	0.0027614199
31	0x3ab9b991	0.0014169683
32	0xb979e619	-0.00023832209
33	0x39fb76c0	0.00047962926
34	0xbb4e763d	-0.003150358
35	0xb8fb918d	-0.000119957236
36	0x3acc84ed	0.001560358
37	0xb95933f4	-0.00020714087
38	0xbb827501	-0.003981233
39	0xb93afe6e	-0.00017833125
40	0xba1699fa	-0.000574499
41	0x3b2082b2	0.0024491963
42	0x3ad1e98b	0.0016015036
43	0x3823b035	3.9026334e-05
44	0x3b93dc23	0.0045123263
45	0xb91139ad	-0.00013849763
46	0xbb4a049f	-0.0030825508
47	0xbb8a274c	-0.0042161103
48	0xbbf737db	-0.0075445003
49	0x3b96e920	0.0046054274
50	0x364fd3de	3.0968727e-06
51	0xb90725c4	-0.00012888672
52	0xb9a06f76	-0.00030600623
53	0xbc0c2795	-0.008554359
54	0xbb704c62	-0.0036666621
55	0x393888ce	0.00017598571
56	0xbb8486c9	-0.004044388
57	0xbba872e2	-0.005140648
58	0xbb382556	-0.0028098426
59	0x3a503b24	0.0007943383
60	0xbb120cfe	-0.0022285576
61	0x3a063e04	0.00051209354
62	0xb98eca2c	-0.0002723498
63	0x3a7f06e1	0.0009728503
64	0x3a160fb8	0.0005724388
65	0xb8450d54	-4.6980873e-05
66	0x394f7c3d	0.0001978734
67	0x3b536869	0.0032258278
68	0xb7e7d1a8	-2.7634975e-05
69	0xb83a7aa7	-4.4460085e-05
70	0xb9d6f909	-0.00041002806
71	0x39f25e31	0.00046228015
72	0x3a56ad97	0.0008189319
73	0x3847e5fc	4.7659487e-05
74	0x39be7dc9	0.0003633334
75	0x3b3908c3	0.0028233982
76	0x389f05eb	7.582813e-05
77	0x3a2c574f	0.00065742893
78	0xba34fb77	-0.0006903926
79	0xba00c201	-0.00049117213
80	0xba0d35f1	-0.0005386761
81	0x399a6605	0.0002944918
82	0x3a2caa33	0.0006586641
83	0x39debd6a	0.00042484264
84	0xba649d8d	-0.00087209867
85	0x391b5aa6	0.00014815721
86	0xb984a33c	-0.0002529862
87	0xb9a12f58	-0.00030743587
88	0xb976ce1d	-0.00023537171
89	0x3adfbd2b	0.0017069926
90	0x3bfc4cdb	0.0076995916
91	0x3a703855	0.00091636676
92	0xb9625faa	-0.00021588677
93	0xb887684f	-6.4567306e-05
94	0x3876ce0a	5.884286e-05
95	0x390ff382	0.00013728256
96	0xbb32aa97	-0.0027262324
97	0xbaf63be2	-0.0018786157
98	0x382d8ca9	4.1377414e-05
99	0xb98ff3ea	-0.00027456816
100	0x3a77a337	0.0009446623
101	0xbb6de7a3	-0.0036301396
102	0x3b866914	0.0041018818
103	0x3bad90fc	0.0052968245
104	0xba99603d	-0.0011701655
105	0x38a8e38b	8.0532474e-05
106	0xbb5c9be9	-0.0033662266
107	0xba9c1ac2	-0.001190983
108	0x3bed3888	0.007239405
109	0xb8c27755	-9.272868e-05
110	0xb957e6e3	-0.0002059001
111	0xb91da7c6	-0.00015035187
112	0x39131cc9	0.00014029736
113	0xba324af9	-0.0006801333
114	0x378b571e	1.6610658e-05
115	0xbaea3c8a	-0.0017870825
116	0xb9c590d0	-0.00037682662
117	0xb988dd0c	-0.00026104634
118	0x3b6d2686	0.0036186292
119	0x3a92cf76	0.0011200744
120	0x3b452ae6	0.0030085384
121	0x3b9c5c69	0.0047717583
122	0x369273d9	4.3646255e-06
123	0xbb4017e1	-0.0029311108
124	0xbb06a727	-0.0020546408
125	0xb995422a	-0.0002846879
126	0xb8d9e806	-0.00010390584
127	0x3b4b52c9	0.0031024686

exp_avg_sq f4 [128]
0	0x38f495d6	0.00011662736
1	0x3929cdc1	0.00016193745
2	0x3a089aa0	0.0005211029
3	0x399a471e	0.00029426155
4	0x3af85e43	0.0018948991
5	0x38f88d7a	0.000118519136
6	0x3600b5c1	1.917928e-06
7	0x35aa483a	1.2687008e-06
8	0x3a6342ac	0.00086692977
9	0x388e21e1	6.777398e-05
10	0x36b689b3	5.440053e-06
11	0x3662e2f8	3.3808737e-06
12	0x3aa17673	0.0012318626
13	0x396116ba	0.00021466138
14	0x3a1ba38c	0.0005937151
15	0x392797e1	0.0001598294
16	0x3a55e40f	0.00081592886
17	0x3641f1bc	2.889995e-06
18	0x3764fefc	1.3649227e-05
19	0x399910f8	0.00029195077
20	0x399bd106	0.00029719638
21	0x3a82c9f8	0.0009978404
22	0x3a657136	0.00087525265
23	0x38d7dbbe	0.00010292929
24	0x3971b665	0.00023051498
25	0x38b7dd88	8.7673834e-05
26	0x372a8022	1.0162623e-05
27	0x39f3e43d	0.00046518623
28	0x35d3d28a	1.5782e-06
29	0x366b4acb	3.5061264e-06
30	0x3a1305ea	0.0005608486
31	0x39b83f8e	0.00035142567
32	0x35ae82f7	1.3002126e-06
33	0x37b56b9e	2.1626995e-05
34	0x394c1a16	0.00019464674
35	0x37813b4d	1.5405612e-05
36	0x386f6070	5.7071855e-05
37	0x35ca96f2	1.5094104e-06
38	0x39abeb29	0.0003279087
39	0x362c1791	2.5643715e-06
40	0x3812cdfc	3.500095e-05
41	0x39f0d944	0.00045938243
42	0x393de463	0.00018109525
43	0x366f9ed2	3.570622e-06
44	0x39e268d8	0.00043184194
45	0x3529ccb2	6.3255277e-07
46	0x39c5f530	0.00037757447
47	0x398d3c2e	0.00026938453
48	0x3a7eec64	0.0009724556
49	0x3a468e50	0.0007574307
50	0x38b36a67	8.555204e-05
51	0x3651d0d5	3.1264983e-06
52	0x363e6694	2.8371915e-06
53	0x3ad75505	0.0016428536
54	0x39566137	0.00020444846
55	0x37030150	7.808514e-06
56	0x3987a959	0.0002587538
57	0x395c2329	0.00020993933
58	0x39259cf5	0.00015794097
59	0x3793f91d	1.7639768e-05
60	0x383f6c79	4.563897e-05
61	0x39c35ffe	0.00037264818
62	0x3702be88	7.792965e-06
63	0x39d279cd	0.0004014507
64	0x38a75a87	7.9800426e-05
65	0x34a0d87b	2.9959833e-07
66	0x382711ba	3.9832412e-05
67	0x399ea338	0.00030257716
68	0x34e236db	4.2135693e-07
69	0x38ad9dae	8.278653e-05
70	0x36a15e79	4.809172e-06
71	0x387fc8c1	6.0983704e-05
72	0x36f288c4	7.2280836e-06
73	0x34d1a7ac	3.905128e-07
74	0x3991205e	0.0002768067
75	0x386f86f8	5.710774e-05
76	0x36588af8	3.2267399e-06
77	0x37b9ca51	2.214793e-05
78	0x38c1f9b1	9.249466e-05
79	0x36c39262	5.828494e-06
80	0x3891b0f1	6.947097e-05
81	0x385ccbd5	5.264192e-05
82	0x36c9ae36	6.0105476e-06
83	0x38353ea9	4.321212e-05
84	0x39590331	0.00020695922
85	0x3839b632	4.427712e-05
86	0x363076b7	2.6295145e-06
87	0x3631d3e2	2.6498387e-06
88	0x3593f73c	1.1024308e-06
89	0x3a174039	0.0005769763
90	0x3abc191b	0.0014350744
91	0x3905fb23	0.00012777424
92	0x35e13a0e	1.6780702e-06
93	0x34cab928	3.776015e-07
94	0x367d7a57	3.777115e-06
95	0x3604628b	1.9726892e-06
96	0x3931eea4	0.00016968936
97	0x38e8bf26	0.00011098226
98	0x39e2ce4e	0.00043259788
99	0x3640ba66	2.8718728e-06
100	0x378d3e62	1.6837559e-05
101	0x39d0f2c7	0.00039853735
102	0x3a58f295	0.00082758936
103	0x3972cb2d	0.00023154607
104	0x393557fa	0.00017294279
105	0x3824eced	3.93213e-05
106	0x39895ea9	0.00026201204
107	0x38620eda	5.389643e-05
108	0x3a5b8f44	0.0008375535
109	0x3685a9b4	3.983465e-06
110	0x363b2cf4	2.7891338e-06
111	0x36109356	2.1543433e-06
112	0x36466606	2.9563685e-06
113	0x36b28eb8	5.321428e-06
114	0x35c5e954	1.4745551e-06
115	0x38b2210f	8.493859e-05
116	0x35cd794d	1.5308993e-06
117	0x37b4da3c	2.1559295e-05
118	0x38c7a6ce	9.520129e-05
119	0x399ffa77	0.00030513454
120	0x389805c1	7.2489966e-05
121	0x3a7f2718	0.00097333035
122	0x3692c3de	4.373941e-06
123	0x3946ff8b	0.00018977949
124	0x3a3376ea	0.00068460277
125	0x362a01f6	2.5333115e-06
126	0x368723a3	4.027462e-06
127	0x3909a86f	0.00013128085
